mnist_cnn_model.pth (torch, 86607 bytes, 12 tensors)

model.0.weight f4 [3, 1, 3, 3]
0	0x00000f67	5.525e-42
1	0x8000053a	-1.875e-42
2	0x00000129	4.16e-43
3	0x80000944	-3.324e-42
4	0x800009a6	-3.461e-42
5	0x80000ae1	-3.903e-42
6	0x8000006f	-1.56e-43
7	0x800007a6	-2.744e-42
8	0x00000b72	4.106e-42
9	0x000000e0	3.14e-43
10	0x800004a6	-1.668e-42
11	0x00000822	2.918e-42
12	0x800000c2	-2.72e-43
13	0x00000c0c	4.322e-42
14	0x00000071	1.58e-43
15	0x0000035d	1.207e-42
16	0x00000c77	4.472e-42
17	0x80000489	-1.627e-42
18	0xaba9933c	-1.2049038e-12
19	0xac721ac8	-3.4405135e-12
20	0xac9831f5	-4.325646e-12
21	0x2b81b638	9.216577e-13
22	0x2bc52182	1.4006992e-12
23	0xac88093f	-3.866379e-12
24	0xac9380ec	-4.1923045e-12
25	0xacfcc74e	-7.184398e-12
26	0x2c0af97a	1.9749467e-12

model.0.bias f4 [3]
0	0x800002a6	-9.5e-43
1	0x8000093f	-3.317e-42
2	0x2c481826	2.8435115e-12

model.3.weight f4 [9, 3, 3, 3]
0	0x80001142	-6.191e-42
1	0x000005fa	2.144e-42
2	0x80001080	-5.919e-42
3	0x80001146	-6.197e-42
4	0x00000540	1.883e-42
5	0x00000a2a	3.646e-42
6	0x800009fc	-3.582e-42
7	0x80000232	-7.88e-43
8	0x80000f3e	-5.468e-42
9	0x0000057b	1.966e-42
10	0x8000016e	-5.13e-43
11	0x0000044f	1.546e-42
12	0x800001dc	-6.67e-43
13	0x80000174	-5.21e-43
14	0x80000683	-2.336e-42
15	0x000007bf	2.779e-42
16	0x00001051	5.853e-42
17	0x800011dd	-6.408e-42
18	0x000004b2	1.684e-42
19	0x80000cf4	-4.647e-42
20	0x00000410	1.457e-42
21	0x00000949	3.331e-42
22	0x80000f87	-5.57e-42
23	0x000004ec	1.766e-42
24	0x00000c20	4.35e-42
25	0x00001333	6.887e-42
26	0x000009ba	3.489e-42
27	0x800002ac	-9.58e-43
28	0x000011d1	6.391e-42
29	0x00001074	5.902e-42
30	0x00000162	4.96e-43
31	0x0000047e	1.611e-42
32	0x80000073	-1.61e-43
33	0x80000429	-1.492e-42
34	0x0000068b	2.347e-42
35	0x000008de	3.181e-42
36	0x000005c1	2.064e-42
37	0x80000d0d	-4.682e-42
38	0x0000133c	6.9e-42
39	0x8000048c	-1.631e-42
40	0x800007ad	-2.754e-42
41	0x80000a93	-3.793e-42
42	0x00000e79	5.192e-42
43	0x8000034b	-1.181e-42
44	0x8000041a	-1.471e-42
45	0xa1822ce8	-8.821029e-19
46	0x22600bea	3.0363968e-18
47	0x218bb7f0	9.467694e-19
48	0x232994be	9.193006e-18
49	0x231c521c	8.474164e-18
50	0xa33051ec	-9.558327e-18
51	0x227748fc	3.351338e-18
52	0xa2ee9fce	-6.467923e-18
53	0x2319c5f5	8.336066e-18
54	0x0000096a	3.377e-42
55	0x80000f3d	-5.466e-42
56	0x0000109d	5.96e-42
57	0x00000b79	4.116e-42
58	0x80000f01	-5.382e-42
59	0x800007de	-2.822e-42
60	0x00000a4c	3.694e-42
61	0x000011cd	6.386e-42
62	0x8000047b	-1.607e-42
63	0x00000649	2.255e-42
64	0x00001471	7.333e-42
65	0x8000049b	-1.652e-42
66	0x800003b2	-1.326e-42
67	0x00000b10	3.968e-42
68	0x000009ad	3.471e-42
69	0x000012ce	6.746e-42
70	0x800003c1	-1.347e-42
71	0x00000b57	4.068e-42
72	0x00000351	1.19e-42
73	0x00000605	2.16e-42
74	0x800003e3	-1.394e-42
75	0x00000135	4.33e-43
76	0x0000085c	2.999e-42
77	0x80000691	-2.356e-42
78	0x000002c3	9.91e-43
79	0x800002d4	-1.015e-42
80	0x000012d6	6.757e-42
81	0x00000482	1.617e-42
82	0x80000e79	-5.192e-42
83	0x80000c05	-4.312e-42
84	0x80000fc1	-5.651e-42
85	0x80000c12	-4.33e-42
86	0x80000e09	-5.035e-42
87	0x00000cbd	4.57e-42
88	0x00000b7e	4.123e-42
89	0x00000933	3.3e-42
90	0x8000089e	-3.091e-42
91	0x00000585	1.98e-42
92	0x00000652	2.267e-42
93	0x800010ee	-6.073e-42
94	0x000011cc	6.384e-42
95	0x800005d5	-2.092e-42
96	0x8000050e	-1.813e-42
97	0x800002cc	-1.003e-42
98	0x0000110f	6.12e-42
99	0xa224e2fb	-2.2346307e-18
100	0x21a7c3a6	1.1368148e-18
101	0xa1438fb2	-6.625875e-19
102	0x21a22503	1.0987344e-18
103	0xa13cc68a	-6.395964e-19
104	0xa29e6ce8	-4.2941295e-18
105	0xa1471aa4	-6.745908e-19
106	0x21d1ff52	1.4229974e-18
107	0xa2b99031	-5.029702e-18
108	0x80000983	-3.412e-42
109	0x00001052	5.855e-42
110	0x800003e7	-1.4e-42
111	0x00000481	1.616e-42
112	0x00000326	1.13e-42
113	0x80000958	-3.352e-42
114	0x00000232	7.88e-43
115	0x80000597	-2.005e-42
116	0x80000c40	-4.394e-42
117	0x000010f1	6.077e-42
118	0x00000c3e	4.392e-42
119	0x80000df5	-5.007e-42
120	0x0000043d	1.52e-42
121	0x800003f9	-1.425e-42
122	0x800009b4	-3.481e-42
123	0x80000511	-1.817e-42
124	0x000008c9	3.152e-42
125	0x800006be	-2.419e-42
126	0xb7968394	-1.7942664e-05
127	0xb740683d	-1.1468362e-05
128	0xb4e68f86	-4.2945265e-07
129	0xb3b74811	-8.5347104e-08
130	0x30830000	9.531504e-10
131	0xb5ae6444	-1.2993191e-06
132	0x3600784e	1.9143513e-06
133	0xb18c7bd2	-4.088613e-09
134	0x33991a5d	7.129413e-08
135	0x80001310	-6.838e-42
136	0x0000072c	2.573e-42
137	0x00001103	6.103e-42
138	0x000000c9	2.82e-43
139	0x00000c01	4.306e-42
140	0x00000cad	4.547e-42
141	0x00000b66	4.089e-42
142	0x00000ecf	5.312e-42
143	0x00000bd2	4.24e-42
144	0x0000080c	2.887e-42
145	0x80001502	-7.536e-42
146	0x00000299	9.32e-43
147	0x000008d9	3.174e-42
148	0x80000a29	-3.645e-42
149	0x00000914	3.257e-42
150	0x80000ed4	-5.32e-42
151	0x8000063d	-2.238e-42
152	0x00000c28	4.361e-42
153	0x22daeea4	5.934169e-18
154	0xa38af388	-1.506513e-17
155	0x22bc9c30	5.112287e-18
156	0xa3f4134d	-2.6462707e-17
157	0xa201b53e	-1.7578709e-18
158	0xa2d9e0fa	-5.905617e-18
159	0xa32b3b3d	-9.282473e-18
160	0x23741fb7	1.3233982e-17
161	0xa3fb53a5	-2.72489e-17
162	0x800002d5	-1.016e-42
163	0x80000011	-2.4e-44
164	0x80000bda	-4.252e-42
165	0x000000a4	2.3e-43
166	0x8000035d	-1.207e-42
167	0x000013c2	7.088e-42
168	0x0000033c	1.16e-42
169	0x0000032d	1.139e-42
170	0x8000026c	-8.69e-43
171	0x8000114b	-6.204e-42
172	0x000001a2	5.86e-43
173	0x000007d1	2.804e-42
174	0x8000066f	-2.308e-42
175	0x0000049f	1.658e-42
176	0x800002e9	-1.044e-42
177	0x800004e6	-1.757e-42
178	0x80001449	-7.277e-42
179	0x000014da	7.48e-42
180	0x22457110	2.6758333e-18
181	0x22a31104	4.4199255e-18
182	0xa1a05293	-1.0863879e-18
183	0xa19d6618	-1.0665758e-18
184	0xa1afaae6	-1.1903698e-18
185	0xa2284dbd	-2.28094e-18
186	0x2262168c	3.0640648e-18
187	0xa18b1b8c	-9.426298e-19
188	0xa1a5a0e0	-1.1223418e-18
189	0x80000086	-1.88e-43
190	0x00000440	1.525e-42
191	0x80000c98	-4.518e-42
192	0x800006a1	-2.378e-42
193	0x80000c4d	-4.413e-42
194	0x00000813	2.896e-42
195	0x00000c53	4.421e-42
196	0x000001da	6.64e-43
197	0x80000cf9	-4.654e-42
198	0x00000905	3.236e-42
199	0x00000bdc	4.254e-42
200	0x0000049d	1.655e-42
201	0x80000a9b	-3.805e-42
202	0x000001d7	6.6e-43
203	0x80000e29	-5.08e-42
204	0x000003dc	1.384e-42
205	0x80000430	-1.502e-42
206	0x000010d9	6.044e-42
207	0xb54fc914	-7.7406116e-07
208	0xa3ab197c	-1.855065e-17
209	0xa328380a	-9.119165e-18
210	0x233cbb1d	1.0231123e-17
211	0xa32fc6b1	-9.5288436e-18
212	0x22f2d6c4	6.5821623e-18
213	0xa26def08	-3.2246031e-18
214	0x22b31f8e	4.8551457e-18
215	0xa3a7a715	-1.8176938e-17
216	0x800001d4	-6.56e-43
217	0x8000006c	-1.51e-43
218	0x800000a6	-2.33e-43
219	0x00000acb	3.872e-42
220	0x80000adf	-3.9e-42
221	0x80000ad1	-3.88e-42
222	0x800007db	-2.818e-42
223	0x80000a8c	-3.784e-42
224	0x00000b72	4.106e-42
225	0x00000222	7.65e-43
226	0x800002d5	-1.016e-42
227	0x000000ae	2.44e-43
228	0x800002e8	-1.043e-42
229	0x8000029f	-9.4e-43
230	0x80000c7f	-4.483e-42
231	0x00000358	1.2e-42
232	0x000014f1	7.512e-42
233	0x00000abd	3.852e-42
234	0x80000492	-1.64e-42
235	0x00000589	1.986e-42
236	0x0000013c	4.43e-43
237	0x800001a0	-5.83e-43
238	0x0000115e	6.23e-42
239	0x00000121	4.05e-43
240	0x800002df	-1.03e-42
241	0x80000179	-5.28e-43
242	0x0000125f	6.59e-42

model.3.bias f4 [9]
0	0x80000224	-7.68e-43
1	0x3085685c	9.706684e-10
2	0x8000050c	-1.81e-42
3	0xb2d43518	-2.4704192e-08
4	0xb20a70f6	-8.0583415e-09
5	0x32f9934c	2.9054398e-08
6	0x32ade5c2	2.0244332e-08
7	0xb1a4c838	-4.7957904e-09
8	0x80000650	-2.264e-42

model.6.weight f4 [9, 9, 3, 3]
0	0x8000073e	-2.598e-42
1	0x000010f9	6.089e-42
2	0x000013dc	7.124e-42
3	0x0000039b	1.293e-42
4	0x00000df6	5.008e-42
5	0x00000e55	5.141e-42
6	0x00000d6a	4.812e-42
7	0x00000b32	4.016e-42
8	0x00000385	1.263e-42
9	0x39cdb422	0.00039234856
10	0xac9cf007	-4.460435e-12
11	0x2bbd05a2	1.3430821e-12
12	0xac34fc5c	-2.5719626e-12
13	0xac37861a	-2.6080305e-12
14	0x2cf295d4	6.894688e-12
15	0x2e47e128	4.544734e-11
16	0xac9439d6	-4.212834e-12
17	0xabbf7764	-1.3604504e-12
18	0x800011e1	-6.414e-42
19	0x00000c0e	4.324e-42
20	0x000007ba	2.772e-42
21	0x0000141d	7.215e-42
22	0x800007cf	-2.801e-42
23	0x00000914	3.257e-42
24	0x00000d99	4.878e-42
25	0x00000273	8.79e-43
26	0x80000562	-1.931e-42
27	0x34e8075b	4.321872e-07
28	0x2c7b8654	3.5743812e-12
29	0x2fcefbc0	3.765006e-10
30	0x2f47b1a5	1.8162057e-10
31	0x2e2682c8	3.7860187e-11
32	0xaf30a0b2	-1.6064197e-10
33	0x2dd16d92	2.3809208e-11
34	0xae3bf1b8	-4.2733567e-11
35	0x2e977ff0	6.889411e-11
36	0xacb020de	-5.00587e-12
37	0x2ff0a8aa	4.377559e-10
38	0x302756f8	6.0877836e-10
39	0x34674e02	2.154193e-07
40	0xacb6476e	-5.1806814e-12
41	0x3a002094	0.0004887667
42	0xb07191f2	-8.788269e-10
43	0xaf005fb4	-1.1675533e-10
44	0x3332333a	4.1490445e-08
45	0x387b4e66	5.9916078e-05
46	0xb754b1fc	-1.2677625e-05
47	0x378adc31	1.6553417e-05
48	0xb846805e	-4.732643e-05
49	0xb196cfff	-4.389221e-09
50	0x313ed9b4	2.7772389e-09
51	0xb09173f2	-1.0583092e-09
52	0x380fdc90	3.429927e-05
53	0xb1952c87	-4.341533e-09
54	0x2b15171d	5.296751e-13
55	0xaa9a4904	-2.740656e-13
56	0x2b23f83c	5.825373e-13
57	0x2b69c59b	8.305246e-13
58	0x29c520b0	8.754228e-14
59	0xab6146d6	-8.003436e-13
60	0x2b38226c	6.54177e-13
61	0x2b0ebcb6	5.0710423e-13
62	0x2b7ce672	8.984819e-13
63	0xb42dd961	-1.6190963e-07
64	0xae9fa71c	-7.2601675e-11
65	0x313da2f5	2.759575e-09
66	0x389836c0	7.258123e-05
67	0x392175ad	0.00015397994
68	0x2cbacd28	5.309215e-12
69	0xb59562f2	-1.1130162e-06
70	0xb9042e8c	-0.00012605841
71	0x30941180	1.0773391e-09
72	0xb5f1bd86	-1.8011058e-06
73	0x342a4e32	1.5860931e-07
74	0xb7ca037a	-2.4081895e-05
75	0xb61ba820	-2.3194661e-06
76	0xb522a7aa	-6.0593686e-07
77	0x33cd8360	9.5699534e-08
78	0xb33fff20	-4.4702688e-08
79	0x3429c44c	1.5810764e-07
80	0xb1daf77f	-6.372772e-09
81	0x80000d42	-4.756e-42
82	0xb16e5bae	-3.4685672e-09
83	0x800007a4	-2.741e-42
84	0x2b5b0f51	7.7825685e-13
85	0x0000025d	8.48e-43
86	0xb5c8d3cb	-1.4962801e-06
87	0x00000611	2.176e-42
88	0x80000a23	-3.636e-42
89	0x32ac41a0	2.0053278e-08
90	0x24db7e07	9.518961e-17
91	0x2424f68c	3.5770665e-17
92	0x247288df	5.259132e-17
93	0x24e920d8	1.0110328e-16
94	0x259572c0	2.5925137e-16
95	0x259a9bde	2.682036e-16
96	0xa622f620	-5.65386e-16
97	0xa5ba9643	-3.2367678e-16
98	0xa5ced2e6	-3.5878214e-16
99	0x30990ceb	1.1135887e-09
100	0xb930386b	-0.00016805685
101	0x3154db5b	3.097475e-09
102	0x80000441	-1.526e-42
103	0xb5075690	-5.0417384e-07
104	0x25a8882c	2.9235628e-16
105	0xb75511ea	-1.269996e-05
106	0xb8db9710	-0.00010470871
107	0x00001399	7.03e-42
108	0xa4c15d2e	-8.385826e-17
109	0xa51b06d8	-1.3446426e-16
110	0xa5e81158	-4.0257337e-16
111	0xa430d293	-3.834228e-17
112	0x25add2e4	3.015362e-16
113	0xa5a4b202	-2.8570088e-16
114	0x24d3844a	9.173077e-17
115	0x25736017	2.1109447e-16
116	0xa3e762c8	-2.5086906e-17
117	0xa9c941cc	-8.937607e-14
118	0xa9d3bc3a	-9.4029344e-14
119	0xa9e5bbbc	-1.02022096e-13
120	0x2a02491a	1.1571682e-13
121	0xa9a42107	-7.2887924e-14
122	0x299d9fec	6.9999426e-14
123	0xa7ae6090	-4.8399395e-15
124	0x29ca00ae	8.97072e-14
125	0x29c4a8ed	8.7334525e-14
126	0x33551258	4.960961e-08
127	0xb2fa49dc	-2.9137418e-08
128	0xad8739aa	-1.5373331e-11
129	0x2f76a233	2.2431194e-10
130	0x3531d256	6.624372e-07
131	0xb3b6da05	-8.514693e-08
132	0xa92b310a	-3.8012162e-14
133	0xb0d5bb88	-1.5551089e-09
134	0x3ade9994	0.0016983026
135	0x32f0e2b4	2.804277e-08
136	0x2ef2aca8	1.1035556e-10
137	0x2db7b041	2.0882964e-11
138	0x3416c224	1.4040467e-07
139	0x39a6f274	0.0003184263
140	0xb680db90	-3.8402577e-06
141	0x395d7a51	0.00021121769
142	0x33990a8b	7.1265355e-08
143	0x35792d80	9.282594e-07
144	0xa899b9e9	-1.7067038e-14
145	0xa8850620	-1.4768623e-14
146	0xa8983582	-1.6898595e-14
147	0xa6dbca70	-1.5251048e-15
148	0x287af8a6	1.3931705e-14
149	0x28293ed0	9.395005e-15
150	0x28aa4bd7	1.8906682e-14
151	0x285025cc	1.1554515e-14
152	0x27afdaa8	4.8809325e-15
153	0x00000a01	3.589e-42
154	0x0000093f	3.317e-42
155	0x00001479	7.344e-42
156	0x000010fe	6.096e-42
157	0x00000587	1.983e-42
158	0x00000167	5.03e-43
159	0x0000007a	1.71e-43
160	0x800009f7	-3.575e-42
161	0x0000050a	1.808e-42
162	0x80000de9	-4.99e-42
163	0x80000498	-1.648e-42
164	0xa0e0869a	-3.8036148e-19
165	0x00000f51	5.494e-42
166	0x80000906	-3.237e-42
167	0x23c1bca5	2.1004996e-17
168	0x8000097e	-3.405e-42
169	0x20c6404d	3.3585055e-19
170	0x000013d3	7.112e-42
171	0xb0800522	-9.314685e-10
172	0xb6f51277	-7.3037186e-06
173	0xb30fa396	-3.3443563e-08
174	0x2e181474	3.4578965e-11
175	0x333608de	4.2383242e-08
176	0xb53722c7	-6.822342e-07
177	0xb3fc967b	-1.1762037e-07
178	0x34771916	2.3012794e-07
179	0xb3aa2f40	-7.9248366e-08
180	0x0ce09448	3.4601908e-31
181	0x800008c8	-3.15e-42
182	0x80000177	-5.25e-43
183	0x800009b3	-3.48e-42
184	0xa7583d4e	-3.0009255e-15
185	0x8000076b	-2.661e-42
186	0xa3a0b638	-1.7424407e-17
187	0x00001548	7.634e-42
188	0x00000957	3.35e-42
189	0x347ded85	2.364887e-07
190	0xade0cf91	-2.555803e-11
191	0xaf2654be	-1.5127719e-10
192	0xada01056	-1.8197149e-11
193	0x329ac710	1.8018483e-08
194	0x380dee9c	3.3839242e-05
195	0x2d827f2a	1.4835761e-11
196	0xb79a4343	-1.8389552e-05
197	0x323a97ca	1.0861138e-08
198	0xb8269a04	-3.9720922e-05
199	0x37614824	1.3427842e-05
200	0x2e7bee20	5.728229e-11
201	0xaea6dee4	-7.5883994e-11
202	0x36bc21c6	5.6067684e-06
203	0xb90a1a68	-0.00013170543
204	0xacb503c8	-5.144749e-12
205	0xb6f7a72a	-7.380634e-06
206	0x311447cd	2.1577649e-09
207	0x35b74457	1.3654452e-06
208	0xb7b96502	-2.2100754e-05
209	0xb4f06b00	-4.4781336e-07
210	0xb13083b6	-2.568624e-09
211	0x373e8df4	1.13579335e-05
212	0xae169a6b	-3.4243202e-11
213	0x3789c844	1.6424929e-05
214	0xb674bc28	-3.6468355e-06
215	0x33dc31cf	1.02536085e-07
216	0xb9f9430c	-0.00047542935
217	0xb8109e20	-3.447954e-05
218	0x376e9860	1.4221383e-05
219	0xb15dd540	-3.2280951e-09
220	0xb056ed94	-7.8190365e-10
221	0xae24f0ec	-3.7503264e-11
222	0xadedff09	-2.7057039e-11
223	0x347ce227	2.3551603e-07
224	0x30986ebc	1.1090928e-09
225	0x3820572c	3.8228158e-05
226	0xb43bf498	-1.7504715e-07
227	0xb2f430da	-2.8427554e-08
228	0x3a04a6a4	0.0005060232
229	0x348042b1	2.3890382e-07
230	0xac1d2dbc	-2.233643e-12
231	0x364f7ba0	3.0917363e-06
232	0xb646e33e	-2.9636572e-06
233	0xb05fc088	-8.140053e-10
234	0x2477e387	5.375231e-17
235	0x000013d8	7.119e-42
236	0x00000411	1.459e-42
237	0x00000051	1.14e-43
238	0x80000f6f	-5.537e-42
239	0x00000279	8.87e-43
240	0x80000c8d	-4.502e-42
241	0x8015b52b	-1.993536e-39
242	0x00000541	1.885e-42
243	0x00000178	5.27e-43
244	0x21598490	7.3697905e-19
245	0x2b0b9243	4.95857e-13
246	0x000003ee	1.41e-42
247	0x00000e4b	5.127e-42
248	0x80000909	-3.241e-42
249	0xac3e6244	-2.7055172e-12
250	0xa86d5d5c	-1.3176387e-14
251	0x000001fb	7.1e-43
252	0x33d5d1fd	9.956782e-08
253	0xb1df440e	-6.497891e-09
254	0xb2f51a98	-2.8533847e-08
255	0x31dbd0cc	6.3974763e-09

model.6.bias f4 [9]
0	0xb4b02ba8	-3.281432e-07
1	0xb30c25a1	-3.2630513e-08
2	0xb7c8538f	-2.3880768e-05
3	0xb5b6f272	-1.3630618e-06
4	0xb7ea81f0	-2.795548e-05
5	0xb6ab9c2d	-5.1143784e-06
6	0x36ea2038	6.977494e-06
7	0xb4a90ead	-3.148938e-07
8	0xb72a26c9	-1.014182e-05

model.10.weight f4 [128, 81]
0	0x2d00d4e6	7.3232306e-12
1	0x2cb748e3	5.209265e-12
2	0xad0a0385	-7.845173e-12
3	0xac3df5c8	-2.6994951e-12
4	0x2cc58b72	5.6145583e-12
5	0xad209bf3	-9.129575e-12
6	0xad1cf191	-8.921212e-12
7	0x2cd9da21	6.191728e-12
8	0x2ccd0ede	5.828101e-12
9	0x290cec36	3.1291125e-14
10	0x290f2481	3.178404e-14
11	0x28b8a656	2.050024e-14
12	0xa8de52c3	-2.4682843e-14
13	0xa7b54808	-5.031569e-15
14	0xa7895e9c	-3.8127714e-15
15	0x290a45a7	3.070257e-14
16	0x28fa5443	2.7792118e-14
17	0x2909d65a	3.060603e-14
18	0xae463dd0	-4.507489e-11
19	0xb0147282	-5.400481e-10
20	0xb01597d4	-5.4421645e-10
21	0x2fb7c3c3	3.3426603e-10
22	0xafec9554	-4.3034254e-10
23	0x300b4dac	5.0678284e-10
24	0x2fbb09d5	3.4022088e-10
25	0x2fbd3117	3.441378e-10
26	0xae824080	-5.923173e-11
27	0xaf9fb48e	-2.9050223e-10
28	0xaf1e9bf1	-1.4425418e-10
29	0xaf96d5da	-2.7436792e-10
30	0x2e440b78	4.4575427e-11
31	0x2ca2d580	4.62802e-12
32	0x2f7125ee	2.1932298e-10
33	0x2e523380	4.7794213e-11
34	0x2f806c9c	2.3360236e-10
35	0xaf75b55c	-2.2347052e-10
36	0x2f87ec84	2.4724411e-10
37	0xaf7b2390	-2.2840951e-10
38	0xaf6e0d6a	-2.165074e-10
39	0xaf829757	-2.3754396e-10
40	0xaf620aa4	-2.055836e-10
41	0xaf5e6f8c	-2.0230412e-10
42	0xaf823187	-2.3682054e-10
43	0xaf68b1bc	-2.1163421e-10
44	0xaf78c356	-2.2624866e-10
45	0xaf5b9e26	-1.997412e-10
46	0xaefdae6c	-1.15360915e-10
47	0xaf2fe284	-1.5996632e-10
48	0xaf5bb99f	-1.998388e-10
49	0xaf1725c7	-1.3746791e-10
50	0xaf267957	-1.514072e-10
51	0xaf056a9b	-1.2134153e-10
52	0xaf3e0dba	-1.7285276e-10
53	0xaf1f8d4e	-1.4511167e-10
54	0xaf48ea63	-1.8273165e-10
55	0xaf35f8c7	-1.6550238e-10
56	0xaf64ae27	-2.079835e-10
57	0x2e33bdac	4.086835e-11
58	0xaf3a7427	-1.6957867e-10
59	0xaf37e735	-1.6725894e-10
60	0xaf2d5592	-1.5764659e-10
61	0xaf3dd28a	-1.7264248e-10
62	0xaf58a725	-1.9704467e-10
63	0xade707c3	-2.6265106e-11
64	0xadd85060	-2.459205e-11
65	0xadd6b6ce	-2.4410165e-11
66	0xade227e2	-2.5710937e-11
67	0xae0af9d2	-3.1599452e-11
68	0xaddf7fce	-2.5408921e-11
69	0xae0b02ff	-3.1607602e-11
70	0xadf5ee0a	-2.7958986e-11
71	0xadfe32ae	-2.8898963e-11
72	0xb74edbbd	-1.2329719e-05
73	0xb50cc6a8	-5.2443147e-07
74	0xb52208a8	-6.03623e-07
75	0xb6e25560	-6.745264e-06
76	0x3378921c	5.7874885e-08
77	0xb92cdbda	-0.000164851
78	0x3955db50	0.00020394963
79	0xb26cf784	-1.37932865e-08
80	0x32a239fa	1.8885647e-08
81	0xaf4ce5ac	-1.8635288e-10
82	0xaf81e712	-2.362915e-10
83	0xaf7597bc	-2.2336527e-10
84	0xaf5be470	-1.9999091e-10
85	0xaf8b225a	-2.530836e-10
86	0xaf717d78	-2.1963398e-10
87	0xaf6258bc	-2.0586105e-10
88	0xaf8853ce	-2.4797803e-10
89	0xaf5d79d0	-2.014311e-10
90	0xab7d3165	-8.9952205e-13
91	0xab7f65eb	-9.073564e-13
92	0xab7ec530	-9.051258e-13
93	0xab7d470e	-8.9982264e-13
94	0xab7f9c69	-9.081126e-13
95	0xab7f22a7	-9.064229e-13
96	0xab7d97b6	-9.00942e-13
97	0xab7f80d8	-9.0773005e-13
98	0xab7d52e1	-8.9998674e-13
99	0xb30998a4	-3.2036624e-08
100	0xb292154e	-1.7006325e-08
101	0xb28dea68	-1.6521156e-08
102	0x32ea1e16	2.7254867e-08
103	0x32b04527	2.0520543e-08
104	0x32f7fe3b	2.8870195e-08
105	0x325dc74f	1.2909211e-08
106	0x3274af4a	1.4242525e-08
107	0x32f66957	2.8686072e-08
108	0xb129b921	-2.469797e-09
109	0xb12850b5	-2.4493094e-09
110	0xb128acbb	-2.4545403e-09
111	0xb129b5fe	-2.4696187e-09
112	0xb1280d6d	-2.445485e-09
113	0xb03cb7b8	-6.865508e-10
114	0xb126789c	-2.4224738e-09
115	0xb122a2c3	-2.3666622e-09
116	0xb0470e1c	-7.241583e-10
117	0x3742d8a6	1.16137435e-05
118	0x329afdc0	1.8043352e-08
119	0xb7242491	-9.7836755e-06
120	0x376467ba	1.361401e-05
121	0xb71d4a98	-9.375297e-06
122	0x3754fdeb	1.2695305e-05
123	0x36ec7c5c	7.0478254e-06
124	0xb43fb586	-1.7854299e-07
125	0xb66dc654	-3.5431194e-06
126	0xb1c700e8	-5.7917653e-09
127	0xb1c46df4	-5.716851e-09
128	0xb1c83981	-5.8273035e-09
129	0xb1c837a5	-5.827092e-09
130	0xb18ed2d2	-4.1567114e-09
131	0xb1c44a39	-5.712789e-09
132	0xb1c79f36	-5.8097624e-09
133	0xb1bc2862	-5.476111e-09
134	0xb1c32331	-5.6792477e-09
135	0x36aad246	5.090874e-06
136	0xb795a2ba	-1.783796e-05
137	0xb9e09e91	-0.0004284275
138	0xb9a83605	-0.00032083705
139	0xb6e83d40	-6.9212692e-06
140	0x375b74fc	1.3080655e-05
141	0x37eb0940	2.801849e-05
142	0x3a542620	0.0008092839
143	0x3a8f5334	0.0010934831
144	0x30a1184b	1.1721196e-09
145	0x30a9620e	1.2324237e-09
146	0x30a582d6	1.2042516e-09
147	0x30a27aee	1.182199e-09
148	0x30adbef1	1.2641675e-09
149	0x30a53ec0	1.2023165e-09
150	0x30a2d0cd	1.1846396e-09
151	0x30abd014	1.2501027e-09
152	0x30a2cc97	1.1845199e-09
153	0x3212167e	8.503433e-09
154	0x3267362c	1.3458287e-08
155	0x32035070	7.643493e-09
156	0xb28bb757	-1.6265103e-08
157	0xb1a52590	-4.8064024e-09
158	0xb10a9c10	-2.0170354e-09
159	0xb15aa260	-3.1815475e-09
160	0xb2078a98	-7.889547e-09
161	0xb21a746d	-8.990452e-09
162	0xbaa27c81	-0.0012396724
163	0x389985a0	7.320498e-05
164	0xb74c2678	-1.2168304e-05
165	0x379bc7be	1.8570452e-05
166	0xb582e002	-9.75095e-07
167	0x39487d23	0.00019120103
168	0xb942c3a0	-0.00018574158
169	0x3894fe4b	7.104556e-05
170	0x3634c203	2.693502e-06
171	0xaa22083a	-1.4391345e-13
172	0xaa175478	-1.34408e-13
173	0xaa24b2fc	-1.4628224e-13
174	0xaa22fe06	-1.4476622e-13
175	0xaa1ae6d6	-1.3758035e-13
176	0xaa1be69e	-1.3846777e-13
177	0xaa2082f0	-1.4256283e-13
178	0xaa19ec42	-1.3671098e-13
179	0xaa21cb00	-1.4370102e-13
180	0xb99b11e8	-0.00029577245
181	0xb749e12c	-1.20329605e-05
182	0xb99b0a72	-0.00029571686
183	0xb9a1c05a	-0.00030851626
184	0xb9750d3e	-0.00023369954
185	0xb92999e8	-0.0001617443
186	0xb982cd10	-0.00024948316
187	0x38b90903	8.823166e-05
188	0xb9a1ae34	-0.00030838104
189	0x3945604a	0.00018823255
190	0xb5f31e68	-1.811376e-06
191	0xb80118ae	-3.077898e-05
192	0x382590a2	3.9473765e-05
193	0x39bff9ec	0.00036616565
194	0x358efa56	1.0652682e-06
195	0xb5f100f5	-1.7956178e-06
196	0x399d5088	0.00030005374
197	0x37d38ee0	2.5219691e-05
198	0xb7035293	-7.827434e-06
199	0x368602c4	3.993833e-06
200	0x38092abc	3.2703145e-05
201	0x36a083f0	4.783731e-06
202	0xb8e0f66a	-0.000107270505
203	0x35cd3161	1.5288061e-06
204	0x36955168	4.450023e-06
205	0x36b7c233	5.4764328e-06
206	0xb923ebba	-0.00015632706
207	0xb90505f8	-0.00012686092
208	0x389282e6	6.986204e-05
209	0x357b1008	9.3528115e-07
210	0x3808a12d	3.2575033e-05
211	0x38361f10	4.342111e-05
212	0x38413cec	4.6071524e-05
213	0xb4df6852	-4.161289e-07
214	0x394b380c	0.00019380468
215	0xb8ff15a0	-0.000121633755
216	0xb815ed1d	-3.5745197e-05
217	0xb996f84b	-0.00028795222
218	0xb9b01c65	-0.00033590492
219	0xb8c4a3c8	-9.376515e-05
220	0xb8a137fb	-7.6875054e-05
221	0xb99b9398	-0.0002967387
222	0xb7604a7e	-1.33687845e-05
223	0xb97d4526	-0.0002415372
224	0xb9ab79da	-0.00032706448
225	0x35b40638	1.3412855e-06
226	0xb5529a82	-7.8455935e-07
227	0x3605ec58	1.9956115e-06
228	0xb6036069	-1.957664e-06
229	0x34058c30	1.243759e-07
230	0xb63cb266	-2.8118025e-06
231	0x35c740c3	1.4845504e-06
232	0xb57738b0	-9.209716e-07
233	0x346bb292	2.1951044e-07
234	0x33250f10	3.8430755e-08
235	0x3578b244	9.264661e-07
236	0xb4cd0bd1	-3.8192823e-07
237	0xb4cf5906	-3.8621528e-07
238	0xb4c58d06	-3.6796717e-07
239	0x34d93670	4.0459008e-07
240	0x350bce4c	5.2081737e-07
241	0x35810f64	9.615728e-07
242	0xb49912cc	-2.8512147e-07
243	0x2fb3756e	3.264335e-10
244	0x2fb3a200	3.2675018e-10
245	0x2fb3532a	3.2619002e-10
246	0x2fb382f2	3.2652953e-10
247	0x2fb3ea51	3.2726402e-10
248	0x2fb382a5	3.265274e-10
249	0x2fb3a341	3.267591e-10
250	0x2fb3e510	3.272267e-10
251	0x2fb3a0df	3.2674216e-10
252	0x2c6d4231	3.371647e-12
253	0x2c656bc1	3.2602673e-12
254	0x2c7ae14d	3.5652204e-12
255	0x2c2f0f86	2.4877613e-12

model.10.bias f4 [128]
0	0xb556efcc	-8.007016e-07
1	0xb89057d6	-6.882816e-05
2	0xbac0dbe1	-0.0014713967
3	0xbb06da0a	-0.0020576739
4	0x385fff60	5.340518e-05
5	0x37942f47	1.766499e-05
6	0xb9114184	-0.00013852684
7	0xbc0229ed	-0.007944566
8	0x360b3449	2.0743048e-06
9	0x3952aa39	0.00020090574
10	0xbd7c5790	-0.061606944
11	0x340a163e	1.2860343e-07
12	0x3a7d46f3	0.00096617563
13	0xb88606f8	-6.390916e-05
14	0xb61430f2	-2.2082208e-06
15	0x39a6a841	0.00031787346
16	0xb9c41528	-0.00037399796
17	0xba02ec79	-0.00049943436
18	0x368bc2f8	4.16522e-06
19	0xb99b43a2	-0.00029614294
20	0xb6ae61cc	-5.196989e-06
21	0xb8874a90	-6.45119e-05
22	0xb968ef99	-0.00022214501
23	0xb766e47c	-1.37622665e-05
24	0xbb1eff06	-0.0024260893
25	0x399e01c5	0.00030137427
26	0xba6b4d02	-0.00089760136
27	0xba23ecf4	-0.00062532653
28	0x375aec84	1.3048881e-05
29	0xb7857dd8	-1.5913436e-05
30	0x394e1bf2	0.00019656101
31	0xb9e7fb70	-0.0004424709
32	0x37cb1e3e	2.4213568e-05
33	0x3655967a	3.1827062e-06
34	0xb8b3efc3	-8.580044e-05
35	0xb7a94c60	-2.0181935e-05
36	0xb89fb786	-7.615895e-05
37	0x336c3000	5.4991688e-08
38	0x3a914adb	0.0011084931
39	0x345a2750	2.0317134e-07
40	0xb6a59835	-4.9351024e-06
41	0xbb1b3867	-0.0023684741
42	0x3bba21bd	0.0056802914
43	0xb61efdfe	-2.3691678e-06
44	0xba3d4952	-0.00072207034
45	0xbae88677	-0.0017740269
46	0x36f7d6bf	7.3861734e-06
47	0xba271dc9	-0.0006374983
48	0x370c9a5a	8.380588e-06
49	0xb6b26653	-5.3167255e-06
50	0x34dd8bd9	4.126621e-07
51	0x3a5d54a0	0.0008443091
52	0xb843bd41	-4.666788e-05
53	0xba5cc3f0	-0.0008421531
54	0xbc326edb	-0.010890688
55	0x3882500a	6.2137915e-05
56	0x358746e0	1.0078911e-06
57	0x3951e336	0.00020016436
58	0x395f4326	0.00021291952
59	0xb60146e0	-1.9263753e-06
60	0xb9b58750	-0.00034623826
61	0xb88f1028	-6.821781e-05
62	0x36d11f62	6.232339e-06
63	0x3a01885a	0.00049412774
64	0xb7925ea9	-1.7448636e-05
65	0x38a7200f	7.969152e-05
66	0x37b292f4	2.1287684e-05
67	0xb8433205	-4.6538207e-05
68	0xb80b964f	-3.328017e-05
69	0xb9d663fe	-0.0004089176
70	0xba0c2396	-0.0005345879
71	0xb7c48d2a	-2.3430755e-05
72	0x38250eab	3.9352726e-05
73	0x36848d7f	3.950379e-06
74	0xb935fe70	-0.0001735629
75	0xb88e83aa	-6.795612e-05
76	0x36dcf32c	6.58482e-06
77	0x3938bc34	0.00017617719
78	0x370993d2	8.200253e-06
79	0xb58c6d71	-1.0462664e-06
80	0x33ca3a5a	9.416972e-08
81	0xbab925bb	-0.0014125624
82	0x39daf776	0.00041764573
83	0xb0b4af99	-1.3146632e-09
84	0xb8f3671d	-0.00011606349
85	0x39d0e77b	0.00039845318
86	0xba36ab16	-0.0006968243
87	0xb8a910d6	-8.061684e-05
88	0x3c2ca9e8	0.010538556
89	0xbc0171ae	-0.0079006385
90	0x3a0e558f	0.00054296193
91	0xb8918082	-6.938075e-05
92	0xb989b698	-0.0002626672
93	0xb925741b	-0.00015778879
94	0xb798d6a7	-1.8219767e-05
95	0xb92c1fb2	-0.00016415006
96	0xb9ca2fb1	-0.00038563975
97	0x39c2e178	0.0003717055
98	0xb7509316	-1.2432012e-05
99	0xb812978f	-3.4950262e-05
100	0xba5fbaaa	-0.000853459
101	0xbb75232c	-0.0037404997
102	0xb71c1c80	-9.30496e-06
103	0xba26cd89	-0.00063630246
104	0xb34b0c4c	-4.7275805e-08
105	0xbb86eaa8	-0.0041173287
106	0x34d2b058	3.9243855e-07
107	0xb8f522b2	-0.00011688973
108	0xb9069f21	-0.00012838516
109	0xb7cfe360	-2.4782203e-05
110	0xbb215072	-0.00246146
111	0xb825dba1	-3.954361e-05
112	0x39805652	0.00024478376
113	0xba828fd8	-0.0009961082
114	0x3ae2cc89	0.0017303388
115	0xb82a2c2e	-4.0572304e-05
116	0xb91b3d68	-0.00014804828
117	0xb8323834	-4.249085e-05
118	0xbae58618	-0.0017511277
119	0xb86fafa2	-5.714561e-05
120	0x35bd6fce	1.4114137e-06
121	0xb6ddfb62	-6.615578e-06
122	0xb98d456f	-0.00026945348
123	0x380dc160	3.3797114e-05
124	0xb8d739a6	-0.00010262737
125	0xb9023416	-0.0001241717
126	0x35fe841c	1.8962924e-06
127	0xb839e5e4	-4.432154e-05

model.13.weight f4 [64, 128]
0	0x3338c726	4.3021963e-08
1	0xb4e4ef44	-4.2642398e-07
2	0xb746cade	-1.1848953e-05
3	0x375b250e	1.3062045e-05
4	0x37dedb47	2.6566571e-05
5	0xb7810aa8	-1.538296e-05
6	0x387c6dcf	6.018375e-05
7	0x37412ee0	1.151461e-05
8	0xb2e19397	-2.6260564e-08
9	0x3790c610	1.7258368e-05
10	0xb9c99639	-0.00038449632
11	0x330607d7	3.1206437e-08
12	0x3856c960	5.120912e-05
13	0x35c8e79f	1.4968572e-06
14	0xb840a752	-4.5932196e-05
15	0x389fdff0	7.6234224e-05
16	0xb6c8dd94	-5.9862596e-06
17	0x3657d8b3	3.2163632e-06
18	0xb6dcfaf0	-6.585724e-06
19	0xb8c94328	-9.596936e-05
20	0xb7bb9d92	-2.2365512e-05
21	0x3788e739	1.6320135e-05
22	0xb7a4936d	-1.9618974e-05
23	0xb84188b6	-4.6142108e-05
24	0x3a00d268	0.00049141655
25	0x369b280d	4.6240225e-06
26	0x369cf7f0	4.678026e-06
27	0x3715508c	8.899846e-06
28	0x342d9332	1.616543e-07
29	0x34a54fd1	3.079172e-07
30	0x36f4e4c4	7.2983985e-06
31	0x370e505b	8.482569e-06
32	0xb88af57e	-6.626079e-05
33	0x35128595	5.4583626e-07
34	0xb773bbbe	-1.4527641e-05
35	0x357faea0	9.5249015e-07
36	0xb7f3c92c	-2.9061535e-05
37	0xb45c4d1f	-2.0517153e-07
38	0x38f611d4	0.00011733515
39	0x348ffbd2	2.681905e-07
40	0x386adeb5	5.599736e-05
41	0x375112e8	1.2461773e-05
42	0x3a0733e8	0.0005157576
43	0x33226950	3.7814345e-08
44	0x371ae338	9.232019e-06
45	0xb7a5fd22	-1.9787407e-05
46	0x35b4694b	1.3441689e-06
47	0x381243c4	3.4872224e-05
48	0x38342bb6	4.2956053e-05
49	0xb3d25738	-9.794752e-08
50	0xb32428d4	-3.822136e-08
51	0x38b0ebf6	8.436285e-05
52	0x34a233a0	3.0212414e-07
53	0xb712999a	-8.738041e-06
54	0x38661c4c	5.4862627e-05
55	0x361d77c0	2.3464527e-06
56	0xb4beb2f0	-3.5520452e-07
57	0x38ad8bb8	8.2753075e-05
58	0x35b6ce22	1.3620049e-06
59	0xb205c975	-7.787425e-09
60	0x38247a92	3.92148e-05
61	0x389e8886	7.5594566e-05
62	0x36a3fdd6	4.887329e-06
63	0xb73786b1	-1.093901e-05
64	0xb54d442c	-7.6467654e-07
65	0x36790698	3.710773e-06
66	0xb83b5f74	-4.4673172e-05
67	0xb4d247cb	-3.9167784e-07
68	0x30cd9bc0	1.495998e-09
69	0x37f22284	2.886472e-05
70	0x37c92698	2.3979039e-05
71	0xb4eab8e0	-4.372041e-07
72	0x3510f1fa	5.39963e-07
73	0x3500d504	4.7993694e-07
74	0x37525bf2	1.2538383e-05
75	0x33a6c69e	7.7661056e-08
76	0x34a235af	3.021391e-07
77	0x389bb63c	7.42492e-05
78	0x3307676c	3.15262e-08
79	0xb3a20b0c	-7.545722e-08
80	0x31c04d30	5.5967107e-09
81	0x37e6731e	2.7471742e-05
82	0xb8305aba	-4.2046166e-05
83	0x2fb2e216	3.2538655e-10
84	0x360983a8	2.0491225e-06
85	0x35b89e1c	1.3755084e-06
86	0xb3a1a720	-7.5275466e-08
87	0x388ce237	6.717856e-05
88	0x3b0291ec	0.0019923402
89	0xb87e568b	-6.063892e-05
90	0xb70f5174	-8.542429e-06
91	0x385a96c1	5.211565e-05
92	0x36486518	2.9861167e-06
93	0x36c14a79	5.760518e-06
94	0xb682a12d	-3.8930652e-06
95	0xb74d5f71	-1.2241174e-05
96	0x37169496	8.975292e-06
97	0xb7cddbd4	-2.454027e-05
98	0x34028936	1.215711e-07
99	0xb79f03e2	-1.8956085e-05
100	0x39b8870c	0.00035195833
101	0xb8b0f6d6	-8.438311e-05
102	0x35792b80	9.282303e-07
103	0x37fa602c	2.9847106e-05
104	0x3307d575	3.1626275e-08
105	0x37d9cbf9	2.5963398e-05
106	0xb450d494	-1.9448845e-07
107	0x36a5da9b	4.942832e-06
108	0xb52f1323	-6.522043e-07
109	0x380baf92	3.3303695e-05
110	0x36d4ab96	6.3380676e-06
111	0xb78d3377	-1.6832475e-05
112	0x374ffe39	1.2397352e-05
113	0x363c8206	2.8089867e-06
114	0x382c0056	4.100831e-05
115	0x360b9871	2.0801347e-06
116	0xb769978e	-1.3923169e-05
117	0x350910fa	5.106118e-07
118	0xb7ab39d2	-2.0411713e-05
119	0xb64c465d	-3.0439326e-06
120	0x335a2f98	5.0800367e-08
121	0xb56f13a9	-8.906305e-07
122	0xb79a80d0	-1.8418214e-05
123	0x3524dea0	6.1418723e-07
124	0xb5ec02f4	-1.758423e-06
125	0xb71c001a	-9.298348e-06
126	0x365b68d9	3.2694572e-06
127	0xb61f81a9	-2.3768318e-06
128	0x2f523700	1.9118929e-10
129	0xb36f858e	-5.576799e-08
130	0x3461a701	2.1015514e-07
131	0x3404a4fe	1.2353482e-07
132	0x32a089e6	1.868916e-08
133	0xb22b0bee	-9.9562225e-09
134	0x358d91cc	1.0547751e-06
135	0xb337df60	-4.2811166e-08
136	0x32c028de	2.2370326e-08
137	0xb577132d	-9.2042575e-07
138	0x365a92de	3.257002e-06
139	0x3034ff4c	6.5846417e-10
140	0x35692424	8.6851855e-07
141	0xb3b4470c	-8.3948265e-08
142	0x3286dac3	1.5699134e-08
143	0x361cbd70	2.3356079e-06
144	0xb68f2f7c	-4.26726e-06
145	0x338ad1b5	6.464271e-08
146	0xb1e459b4	-6.6458714e-09
147	0x3246fa00	1.158196e-08
148	0xb31a337e	-3.590275e-08
149	0x3415887f	1.3926363e-07
150	0x35851504	9.915389e-07
151	0x32af22d3	2.0388518e-08
152	0x36956e2c	4.4533717e-06
153	0xb384afc6	-6.178702e-08
154	0xb4b6a620	-3.4021014e-07
155	0x3205f804	7.798011e-09
156	0x31eb7c26	6.853514e-09
157	0xb11ce2a8	-2.2829827e-09
158	0xb171da50	-3.5194212e-09
159	0x3482294f	2.4244443e-07
160	0xb29f881a	-1.8571928e-08
161	0x32ea0005	2.7241194e-08
162	0xb4563c05	-1.9952138e-07
163	0x30edb2ac	1.7294801e-09
164	0x328651ea	1.5636903e-08
165	0x2fa4acd0	2.9954217e-10
166	0xb57fb472	-9.5257485e-07
167	0x2d40d0a0	1.09602605e-11
168	0x333631b0	4.2420368e-08
169	0xb4ba2025	-3.4668588e-07
170	0x37588ca6	1.29073505e-05
171	0xb0b08870	-1.2844463e-09
172	0xb4502018	-1.9383185e-07
173	0xb4059d72	-1.2443869e-07
174	0x325db4cc	1.29050015e-08
175	0x34c9a94b	3.7562344e-07
176	0x32e80e86	2.701496e-08
177	0xb085b3ec	-9.72816e-10
178	0xaef6d816	-1.12251694e-10
179	0x35307bee	6.574545e-07
180	0x33a046e1	7.4634734e-08
181	0x35e8eea9	1.7354806e-06
182	0x36098c0a	2.0496104e-06
183	0x34594918	2.0236291e-07
184	0x32d4dc6c	2.4780284e-08
185	0xb4440440	-1.8255469e-07
186	0xb396ce8d	-7.022491e-08
187	0xafcb4d97	-3.6980616e-10
188	0xb444c2e4	-1.8324823e-07
189	0x3577914a	9.2226094e-07
190	0x32112861	8.449292e-09
191	0x35942843	1.1038577e-06
192	0xaf7c1dc0	-2.2929836e-10
193	0x31aa6982	4.959646e-09
194	0x34b67175	3.3982693e-07
195	0xb1c8d364	-5.8447984e-09
196	0xaeae4de0	-7.926437e-11
197	0x355c40cd	8.2050684e-07
198	0xb4089dfa	-1.2723459e-07
199	0x33158bcc	3.481891e-08
200	0x327cdb76	1.471823e-08
201	0xb11c5f84	-2.2755282e-09
202	0xb41c9347	-1.4582211e-07
203	0xb2d797df	-2.5098357e-08
204	0xb20bd956	-8.140281e-09
205	0x3527b7c4	6.247976e-07
206	0x315a15ff	3.1735679e-09
207	0xafbd59d3	-3.4442724e-10
208	0xaf389493	-1.6787487e-10
209	0x34baa000	3.4761615e-07
210	0x35301e1b	6.560892e-07
211	0x2a9b8890	2.762829e-13
212	0xb2e3b0c8	-2.6506669e-08
213	0xb50283e4	-4.86207e-07
214	0xb315f2db	-3.491264e-08
215	0x34519060	1.9517165e-07
216	0x36d9b516	6.488185e-06
217	0xb58c772f	-1.04655e-06
218	0x368546ef	3.9719666e-06
219	0xb40e5254	-1.3254731e-07
220	0x3403f7f9	1.2290538e-07
221	0x32ddb6f2	2.581098e-08
222	0xb38499e5	-6.174722e-08
223	0xb35cb004	-5.1382827e-08
224	0xb418905b	-1.420862e-07
225	0x352c2761	6.4132297e-07
226	0x3174f885	3.564794e-09
227	0x33b5b88e	8.4620396e-08
228	0xb3caf01b	-9.450033e-08
229	0x3661d59c	3.365195e-06
230	0x33ab54cc	7.9782325e-08
231	0xb4051bfa	-1.2396768e-07
232	0xafd82e76	-3.9323184e-10
233	0x338a0768	6.427473e-08
234	0xb1b62572	-5.301154e-09
235	0x32b17867	2.0660265e-08
236	0xb0abe4d6	-1.2506927e-09
237	0xb59bfb86	-1.1621603e-06
238	0x34a31ad7	3.0380644e-07
239	0xb309e15a	-3.2102754e-08
240	0x345c7fc1	2.0535573e-07
241	0x357d4428	9.4349025e-07
242	0xb4f785c8	-4.6104674e-07
243	0xb54f058c	-7.712158e-07
244	0x33a5278c	7.690605e-08
245	0xb2d6c5bc	-2.5002798e-08
246	0xb4d63cb6	-3.990478e-07
247	0x340f1aef	1.3327711e-07
248	0xb18487aa	-3.857129e-09
249	0xb28a2f70	-1.6086886e-08
250	0x3552dcbe	7.855232e-07
251	0x330e477f	3.3126977e-08
252	0xb2065066	-7.818107e-09
253	0xb3d2ca0d	-9.81564e-08
254	0xb28715f7	-1.5726057e-08
255	0xb2f968fd	-2.9035158e-08

model.13.bias f4 [64]
0	0x3b4fe0ae	0.0031719613
1	0x37b39fc1	2.1412854e-05
2	0xb1541699	-3.0862906e-09
3	0x36c57940	5.885173e-06
4	0xaf88642a	-2.4809427e-10
5	0xb4917453	-2.7092992e-07
6	0xb6d53cd0	-6.354974e-06
7	0xb6512d52	-3.1169807e-06
8	0xb31392b8	-3.4359545e-08
9	0xb6e84d11	-6.9231105e-06
10	0xb606b729	-2.007417e-06
11	0xb54ac3ea	-7.5535957e-07
12	0x3553621d	7.87464e-07
13	0xb7cc8c03	-2.4383893e-05
14	0xbabfb40c	-0.0014625802
15	0xb8a41b65	-7.825232e-05
16	0x351c47fa	5.821927e-07
17	0xb80661ac	-3.2039054e-05
18	0xbbf74009	-0.0075454754
19	0xb57990ff	-9.2970726e-07
20	0x349be46a	2.9037193e-07
21	0xb58fb602	-1.0707301e-06
22	0x363bce71	2.7985336e-06
23	0xb6ab5cde	-5.1070083e-06
24	0xbab33498	-0.001367229
25	0x394d5e19	0.00019585378
26	0xb788a302	-1.628837e-05
27	0xb5f72d02	-1.8416033e-06
28	0xb8c2692d	-9.2702314e-05
29	0xb6560465	-3.1891043e-06
30	0xb53eb7a8	-7.104777e-07
31	0xba817820	-0.0009877719
32	0xbb0aaf07	-0.0021161453
33	0xbc8ef378	-0.01745008
34	0xb53714ff	-6.8203366e-07
35	0xb8098d86	-3.279515e-05
36	0xb5132444	-5.481454e-07
37	0xb58c2e91	-1.0444365e-06
38	0x3a90384f	0.0011003109
39	0xb6f88b38	-7.407183e-06
40	0xb901e655	-0.00012388204
41	0xb40201c0	-1.210783e-07
42	0xbdc4173f	-0.09574746
43	0xbb606dc8	-0.0034245122
44	0xb6f71769	-7.363899e-06
45	0xb77a447a	-1.4917105e-05
46	0x33bc6f10	8.774634e-08
47	0xb5030d34	-4.8820516e-07
48	0x360ba4be	2.0808507e-06
49	0x324ba990	1.1854709e-08
50	0xba1bcd0f	-0.0005943337
51	0xb918eedb	-0.0001458483
52	0x3e2319eb	0.15927856
53	0xba1692df	-0.00057439314
54	0x3d3516e2	0.044211276
55	0xbb88dc57	-0.004176657
56	0xbb0ec041	-0.0021782073
57	0x37377123	1.0933992e-05
58	0x346c7630	2.2022209e-07
59	0xb90bd9be	-0.00013337188
60	0xb8f6c35e	-0.00011766584
61	0xb6c68436	-5.916251e-06
62	0xb485e4d5	-2.4939678e-07
63	0x379862ed	1.8165878e-05

model.16.weight f4 [10, 64]
0	0x39213fb0	0.00015377882
1	0x380d05ce	3.3622426e-05
2	0xaefdb5c0	-1.1537393e-10
3	0x36b9ba98	5.535152e-06
4	0x3008e9cf	4.9808774e-10
5	0x33955009	6.9529115e-08
6	0x3795e26f	1.7867626e-05
7	0x34844266	2.4635227e-07
8	0x3103a1bf	1.915495e-09
9	0xb4e22090	-4.2119473e-07
10	0x340751f6	1.2602672e-07
11	0x3619eb47	2.2935726e-06
12	0x37af6c8e	2.0912175e-05
13	0xb6092b62	-2.0439843e-06
14	0x3921d512	0.00015433531
15	0x38a33a09	7.7832556e-05
16	0xb69144cc	-4.3293458e-06
17	0x368ae770	4.1396634e-06
18	0xbab9c1fe	-0.0014172194
19	0x3487842b	2.5241874e-07
20	0x3515e510	5.5840155e-07
21	0x3712d806	8.752575e-06
22	0xb582cb5e	-9.744942e-07
23	0x351f9b98	5.9458534e-07
24	0x39ab91cc	0.0003272429
25	0xb8e53782	-0.0001092991
26	0xb5a03aef	-1.1938081e-06
27	0x3499f577	2.867707e-07
28	0xb93ee47a	-0.00018204926
29	0x3421cf16	1.5069631e-07
30	0x32efd839	2.7921589e-08
31	0xb7679300	-1.3802899e-05
32	0x3a63a22c	0.0008683528
33	0x3d5699c6	0.052392744
34	0xb4553585	-1.9856641e-07
35	0xb7a26c9c	-1.936248e-05
36	0x362eeaa6	2.6064604e-06
37	0x356b6d43	8.770332e-07
38	0x390da4d8	0.00013508217
39	0x383c1d00	4.48497e-05
40	0xb8b4b29a	-8.616336e-05
41	0xb4ff0aff	-4.7505452e-07
42	0xbc459235	-0.012058784
43	0xbb2eef79	-0.002669303
44	0x33ae0d81	8.104963e-08
45	0x3705c783	7.97387e-06
46	0xb3f11b25	-1.12273746e-07
47	0x3368b103	5.41777e-08
48	0x3606a930	2.0066036e-06
49	0x332f36f7	4.0795353e-08
50	0xba9de625	-0.0012046738
51	0xb7bd4f20	-2.2567401e-05
52	0xbe3f4c1a	-0.18681374
53	0x36c0ad06	5.7421885e-06
54	0x3d9695ea	0.073528126
55	0xba21ae77	-0.000616766
56	0xbb08d1d7	-0.0020877027
57	0xb75faed5	-1.3332542e-05
58	0xb4162555	-1.398342e-07
59	0x36c53f4c	5.8784262e-06
60	0xb8b637b7	-8.688814e-05
61	0x378db1b3	1.6891257e-05
62	0xb466564b	-2.1451812e-07
63	0x35ef3750	1.7822986e-06
64	0xbba40d2d	-0.0050064535
65	0xb6c77634	-5.944423e-06
66	0xb225618e	-9.626445e-09
67	0xb6c0c08d	-5.7444618e-06
68	0xae8c2658	-6.373274e-11
69	0xb3a678b1	-7.751931e-08
70	0x374876bc	1.1948574e-05
71	0x3431d8cb	1.6563278e-07
72	0xb148a663	-2.919841e-09
73	0xb6b64788	-5.43235e-06
74	0xb3fcabee	-1.1765938e-07
75	0x35954b4f	1.1123283e-06
76	0xb669a14e	-3.4813597e-06
77	0x3722fcb2	9.714788e-06
78	0x3814a62e	3.5440717e-05
79	0x37bd8375	2.259177e-05
80	0xb505059d	-4.955453e-07
81	0xb6932fe6	-4.3865175e-06
82	0xbaa39e12	-0.0012483022
83	0x34602678	2.087562e-07
84	0xb5ae5a1f	-1.2990239e-06
85	0xb59ac784	-1.1531961e-06
86	0xb701963d	-7.723979e-06
87	0xb4cc2bf0	-3.802993e-07
88	0x3aa2c28f	0.0012417602
89	0xb8fc3376	-0.00012025882
90	0xb6763505	-3.6687718e-06
91	0x34eed247	4.4483951e-07
92	0x3803d1bd	3.1428168e-05
93	0xb504f5e3	-4.9531644e-07
94	0xb52aa68e	-6.3572304e-07
95	0x39180b1a	0.00014499985
96	0xb8249f60	-3.9249077e-05
97	0xbdb49501	-0.08817483
98	0x34cf7603	3.864262e-07
99	0xb66ffe84	-3.5761923e-06
100	0x35c1b946	1.4433542e-06
101	0x353935d5	6.8996206e-07
102	0x3a143c7d	0.00056547654
103	0xb989011b	-0.000261315
104	0x38f9e57c	0.0001191599
105	0x352bab4e	6.3951745e-07
106	0xbbbdeb7f	-0.0057958956
107	0xbb10c8c2	-0.0022092317
108	0xb49f2934	-2.9646037e-07
109	0x37142d09	8.831973e-06
110	0xb3ac4948	-8.022704e-08
111	0xb50ba2f3	-5.201866e-07
112	0x32f802a0	2.8872194e-08
113	0xb328f26e	-3.9336037e-08
114	0x398c9108	0.00026810938
115	0x37665f22	1.3731218e-05
116	0xbde58a9d	-0.11208079
117	0x38045c98	3.1557487e-05
118	0xbdbb364b	-0.09141215
119	0x3a27b569	0.00063975767
120	0xba61bd22	-0.0008611252
121	0x34a13a50	3.0031015e-07
122	0xb3c5bf86	-9.208365e-08
123	0xb7c69cb0	-2.3676403e-05
124	0xb7add8b8	-2.0724125e-05
125	0x355af630	8.156958e-07
126	0xb3ae3994	-8.11298e-08
127	0x35fb37c8	1.8717192e-06
128	0x3b6a761c	0.0035775965
129	0x38a7a075	7.993068e-05
130	0x317a9d6a	3.6469268e-09
131	0x363efc96	2.845923e-06
132	0xaf436cf9	-1.7773862e-10
133	0x32e2e234	2.6412728e-08
134	0xb74d6002	-1.2241306e-05
135	0x344ca25e	1.905805e-07
136	0xafd35e28	-3.8447578e-10
137	0xb65ee833	-3.3215736e-06
138	0x35575ba5	8.02271e-07
139	0xb55f7bd0	-8.3254145e-07
140	0xb7c58ab2	-2.3548815e-05
141	0x35b9a367	1.383113e-06
142	0xb89254f0	-6.977643e-05
143	0x37e91d38	2.778937e-05
144	0xb648fa9e	-2.99482e-06
145	0xb6250379	-2.4588937e-06
146	0x3a8f07c2	0.0010912346
147	0x359fc796	1.190451e-06
148	0x34846e2f	2.4667085e-07
149	0xb6bb4d2e	-5.582019e-06
150	0xb5238a64	-6.0923617e-07
151	0xb57a38e8	-9.3215067e-07
152	0xb97c13e7	-0.00024040007
153	0x358865c0	1.0162403e-06
154	0xb6a81e2b	-5.010302e-06
155	0x34809651	2.3951227e-07
156	0x39256065	0.00015771536
157	0x33c9fb2a	9.405478e-08
158	0xb4f32fde	-4.5297105e-07
159	0xb8a22e53	-7.7333905e-05
160	0x3a49181c	0.0007671134
161	0xbe447394	-0.19184715
162	0xb4d1b27d	-3.905915e-07
163	0x3705a49a	7.965742e-06
164	0xb5b39e90	-1.3382687e-06
165	0xb53193a6	-6.6152495e-07
166	0x39df4461	0.0004258482
167	0x38f5d2d1	0.00011721778
168	0xb8dca6e3	-0.000105215026
169	0x366237ca	3.3709098e-06
170	0x3c70b01d	0.014690426
171	0x3a1e6bfe	0.0006043314
172	0xb4edd18a	-4.429715e-07
173	0x37961dfc	1.7895356e-05
174	0x34085974	1.269853e-07
175	0x33cdbb30	9.5801056e-08
176	0xb6262704	-2.4758638e-06
177	0x34850ef7	2.478407e-07
178	0x3a5bb092	0.0008380498
179	0xb7b815c3	-2.1944643e-05
180	0xbe0c6e39	-0.13713922
181	0xb67392ff	-3.6295385e-06
182	0x3bbacf84	0.0057010073
183	0xbab9d0fa	-0.001417666
184	0x3ba2b2cd	0.0049651624
185	0xb6a737ff	-4.9835066e-06
186	0x34907eea	2.6914432e-07
187	0x37c9c882	2.4054436e-05
188	0xb8150de4	-3.5537305e-05
189	0xb746d91c	-1.1852269e-05
190	0xb3efdf9f	-1.1169981e-07
191	0x370ed8c0	8.514326e-06
192	0x3adbfecf	0.0016784313
193	0x370d4f5e	8.422734e-06
194	0xb13bcde9	-2.7329128e-09
195	0x34b09c4d	3.2896278e-07
196	0x2e87594a	6.15495e-11
197	0xb409280e	-1.2773691e-07
198	0xb796625f	-1.7927201e-05
199	0xb5c5305f	-1.4691722e-06
200	0x2f9bd524	2.834578e-10
201	0x35c142f5	1.4399108e-06
202	0xb43d3e68	-1.76247e-07
203	0xb512b3cf	-5.4650894e-07
204	0x38494a4a	4.799132e-05
205	0xb70453db	-7.887337e-06
206	0x38df4102	0.00010645577
207	0xb8cb5591	-9.695732e-05
208	0xb4cc4f0f	-3.8055484e-07
209	0xb6d54821	-6.3562916e-06
210	0xbb4d7b74	-0.0031354101
211	0x35914f87	1.0826487e-06
212	0xb5879972	-1.0102942e-06
213	0xb683e956	-3.931268e-06
214	0x365b714a	3.2699486e-06
215	0xb5a97e56	-1.262825e-06
216	0xba0c4d5a	-0.00053521025
217	0x38b39036	8.5622465e-05
218	0x36032982	1.9544682e-06
219	0xb51f9123	-5.944332e-07
220	0x385e74fe	5.3037882e-05
221	0xb2f018a4	-2.7950882e-08
222	0xb4573106	-2.004127e-07
223	0xba0513d7	-0.0005076504
224	0x3a5b2cd9	0.000836087
225	0x3e47e11f	0.1951947
226	0x34616133	2.0990119e-07
227	0x37cccd16	2.4414196e-05
228	0x3515c62a	5.579519e-07
229	0xb2aee508	-2.0360417e-08
230	0x3a07616c	0.00051643583
231	0x38d23b2a	0.000100246005
232	0xb91bbe56	-0.00014852858
233	0x35addc76	1.2953667e-06
234	0xbc78c135	-0.015182783
235	0x3a3f08ca	0.00072873814
236	0x360fb710	2.1415217e-06
237	0xb7d34b8b	-2.5188338e-05
238	0x343af1f3	1.741062e-07
239	0xb5aa0934	-1.2668665e-06
240	0xb60124f3	-1.9244005e-06
241	0x3457502e	2.0052605e-07
242	0x39c28014	0.0003709799
243	0xb8702f4f	-5.726452e-05
244	0x3e1ca413	0.15296964
245	0xb719ce6a	-9.16757e-06
246	0x3dbf843a	0.09351392
247	0xbac527d8	-0.0015041782
248	0x3a64362b	0.00087055814
249	0xb317ccb0	-3.534359e-08
250	0x34738c4c	2.2682178e-07
251	0x37cf2491	2.469335e-05
252	0x392cabbc	0.00016467174
253	0x36823bb0	3.8812504e-06
254	0x2fd43700	3.8601655e-10
255	0x3778ae28	1.4822501e-05

model.16.bias f4 [10]
0	0xbb1f36de	-0.0024294178
1	0x3db11171	0.08645905
2	0xbc8a2179	-0.016861664
3	0x3d505b3e	0.050868265
4	0xbd5bdd25	-0.053677697
5	0xbd9e7ad6	-0.07738273
6	0x3d398188	0.045289546
7	0x3d8e2817	0.0694124
8	0xbd805aa4	-0.06267288
9	0xbd0d7747	-0.03453758
