mnist_cnn_model.pth (torch, 86543 bytes, 12 tensors)

model.0.weight f4 [3, 1, 3, 3]
-0.39546803 -0.49716657 -0.4237912 -0.028558698 -0.0824862 -0.053776648 0.5658394 0.49614727
0.4007578 -0.3254473 0.10754082 0.44689217 -0.022302557 0.42846587 0.46821588 0.4677103
0.5422228 0.31368414 0.5742629 0.023288317 -0.6346816 0.54235756 0.30238104 -0.4038929
0.3443802 0.61143494 0.4323215
00000000: c97a cabe 9e8c febe 29fb d8be eef3 e9bc
00000010: 86ee a8bd e744 5cbd dada 103f 0407 fe3e
00000020: 2030 cd3e 07a1 a6be 5d3e dc3d 0dcf e43e
00000030: dab3 b6bc e15f db3e feb9 ef3e b977 ef3e
00000040: 1dcf 0a3f 359b a03e e502 133f 24c7 be3c
00000050: 7e7a 22bf f2d7 0a3f b0d1 9a3e 0dcb cebe
00000060: 9a52 b03e 0087 1c3f 3e59 dd3e

model.0.bias f4 [3]
-0.05600024 0.11219199 0.026333274
00000000: 8260 65bd eac4 e53d e1b8 d73c

model.3.weight f4 [9, 3, 3, 3]
0.25920668 0.0031412991 -0.14187796 0.30166626 0.23428199 0.027947912 -0.094465576 -0.021718796
0.107977584 -0.25353932 -0.3393196 -0.25906783 0.090202324 -0.051904783 -0.2635278 0.046650153
0.049530003 -0.04991106 -0.13009275 -0.2556074 -0.19760026 0.20240487 0.15332061 0.039608233
-0.024132023 0.17764406 0.37237367 -0.16317844 -0.07693961 -0.12863073 -0.10750293 -0.21370377
-0.24707034 -0.08400441 -0.22375569 -0.11784776 -0.2428253 0.09806012 0.2987452 -0.17310974
0.18237957 0.084759235 -0.06155032 0.14248037 -0.030143065 -0.21722968 -0.074897595 -0.015886389
-0.21077567 -0.02783459 0.25339037 -0.15634269 0.14885575 0.4159736 -0.024408042 0.33346716
0.48356882 0.07665189 0.21718727 0.13395514 0.047504373 0.05108547 0.1130921 0.09369337
0.17694153 0.3030269 -0.090875015 0.023275936 0.12697473 -0.3041133 -0.3202365 -0.111741506
0.49571958 0.41263416 0.18646753 0.0043718047 0.11109367 0.0049601677 -0.26553056 -0.2527662
-0.29571304 1.6264044e-05 -1.7879994e-06 1.339872e-07 8.081468e-06 6.9653345e-07 2.7008662e-07 -8.468525e-06
-3.920149e-06 -6.243987e-07 -3.6509515e-05 -2.2967823e-05 -0.00023290687 -4.0657833e-05 -0.0004571854 -0.0009222013
-7.886194e-05 -0.0011511119 -0.001127886 -0.00012592963 2.4523424e-06 -1.930318e-06 -6.098813e-05 -1.7516018e-05
-2.5362562e-05 1.7286613e-05 -2.630847e-05 -0.00014557382 -0.12107019 -0.07165663 -0.1638264 -0.17673199
-0.26564205 -0.1615327 -0.11996788 -0.17788002 -0.055282652 -0.023418132 0.2911943 -0.08345778
0.14642537 0.28275025 -0.3501137 0.2355776 0.073978394 -0.29683447 -0.28389335 0.099177055
-0.004830796 -0.23368314 0.22227684 0.15817352 -0.03652535 0.19380906 0.12154995 -0.06739308
-0.052975837 -0.121946305 -0.0962939 -0.21071473 -0.13339923 -0.11078801 -0.19015625 -0.10839277
0.07520553 -0.09429859 -0.19498695 0.30737463 -0.07178588 -0.16807817 0.25602475 -0.21221393
-0.12571825 0.13909306 0.12100199 -0.13373007 0.11953846 0.062963344 -0.1412316 0.15676925
-0.039936777 -0.13478073 -0.052396737 -0.034133665 0.0031123562 0.008059993 0.17586114 0.11974584
0.21790159 0.14798483 -0.023054523 -0.01596706 -0.07085425 0.018526468 -0.13384964 0.21849243
0.30711365 0.27221948 0.32951403 0.056940075 -0.040596765 -0.041085638 0.04963073 -0.1554955
-0.08020643 -0.055689335 -0.087309554 -0.057983708 -0.08474196 0.0005388448 -0.00092810625 0.00044968698
0.0024563572 0.0029941031 0.0009258508 0.003306023 0.0030310266 0.00091821415 -0.0033645437 -0.0025276758
-0.0021080577 -0.001664652 -0.0022596065 -0.0027934134 -0.0040363125 -0.004151619 -0.0053514875 -0.0028193775
-0.0016307672 -0.0024383804 -0.0015740896 -0.0010411083 -0.0008128292 -0.0023513893 0.0016022939 0.0013538811
-0.025606297 0.10477438 0.04883748 -0.15242195 -0.06495609 0.22726038 -0.06950362 -0.2280555
-0.11505097 -0.10185619 -0.048595957 -0.19844237 -0.039252505 0.006110383 -0.10763583 -0.13505825
-0.04880367 0.051654432 0.022377327 0.21698451 -0.03326363 -0.09625847 0.4062037 0.5348179
-0.13575985 -0.08132862 0.37706888
00000000: bdb6 843e 41de 4d3b 7548 11be 0074 9a3e
00000010: 9ee7 6f3e 05f3 e43c 2b77 c1bd 9eeb b1bc
00000020: 5a23 dd3d e8cf 81be 4cbb adbe 8aa4 84be
00000030: ffbb b83d 1c9a 54bd 1eed 86be 3b14 3f3d
00000040: f9df 4a3d 8a6f 4cbd 0937 05be f9de 82be
00000050: b957 4abe 3943 4f3e 1400 1d3e 3e3c 223d
00000060: 85b0 c5bc 53e8 353e c3a7 be3e 4018 27be
00000070: 8492 9dbd c6b7 03be 7f2a dcbd 29d5 5abe
00000080: 0200 7dbe 810a acbd 3620 65be 2b5a f1bd
00000090: 32a7 78be bfd3 c83d 21f5 983e ae43 31be
000000a0: b6c1 3a3e 4096 ad3d 301c 7cbd 60e6 113e
000000b0: 97ee f6bc 7571 5ebe e963 99bd 2c24 82bc
000000c0: 94d5 57be 5e05 e4bc 62bc 813e 4c18 20be
000000d0: a46d 183e 7efa d43e 60f3 c7bc 35bc aa3e
000000e0: 5596 f73e abfb 9c3d 5766 5e3e 892b 093e
000000f0: f293 423d ff3e 513d d59c e73d 4fe2 bf3d
00000100: 2930 353e 5826 9b3e ae1c babd 2dad be3c
00000110: aa05 023e bdb4 9bbe 0af6 a3be bbd8 e4bd
00000120: f5ce fd3e c944 d33e 58f1 3e3e 5b41 8f3b
00000130: 1485 e33d e788 a23b 9ff3 87be 926a 81be
00000140: b367 97be c56e 8837 31fb efb5 1fde 0f34
00000150: a495 0737 6af9 3a35 6c00 9134 0a14 0eb7
00000160: d389 83b6 5a9c 27b5 cb21 19b8 06ab c0b7
00000170: 7638 74b9 0488 2ab8 63b2 efb9 e2bf 71ba
00000180: af62 a5b8 e8e0 96ba 93d5 93ba fa0b 04b9
00000190: ec92 2436 9c8a 01b6 82cd 7fb8 5def 92b7
000001a0: b0c1 d4b7 b802 9137 02b1 dcb7 2da5 18b9
000001b0: a6f3 f7bd b6c0 92bd 1cc2 27be 3bf9 34be
000001c0: 3c02 88be d468 25be b8b1 f5bd 2e26 36be
000001d0: 1070 62bd 62d7 bfbc 6b17 953e eaeb aabd
000001e0: 88f0 153e a4c4 903e 1a42 b3be 413b 713e
000001f0: fc81 973d b0fa 97be 785a 91be 571d cb3d
00000200: a74b 9ebb a24a 6fbe 8a9c 633e 3df8 213e
00000210: 9b9b 15bd e275 463e 2eef f83d 6205 8abd
00000220: 31fd 58bd fcbe f9bd bc35 c5bd 9ac5 57be
00000230: cf99 08be d3e4 e2bd 52b8 42be 07fd ddbd
00000240: 5b05 9a3d 9f1f c1bd a9aa 47be 3560 9d3e
00000250: 7a04 93bd af1c 2cbe ad15 833e 9c4e 59be
00000260: 49bc 00be 696e 0e3e e4cf f73d 89f0 08be
00000270: 95d0 f43d edf2 803d 049f 10be 1e88 203e
00000280: bf94 23bd f603 0abe f69d 56bd becf 0bbd
00000290: acf8 4b3b 100e 043c f114 343e 4f3d f53d
000002a0: 9821 5f3e 5689 173e d7dc bcbc 5acd 82bc
000002b0: 081c 91bd d2c4 973c e10f 09be 7bbc 5f3e
000002c0: 003e 9d3e 5a60 8b3e 10b6 a83e ff39 693d
000002d0: cb48 26bd 6a49 28bd 9849 4b3d 363a 1fbe
000002e0: 4543 a4bd 801a 64bd 5acf b2bd 5380 6dbd
000002f0: 318d adbd 4341 0d3a 284c 73ba f7c3 eb39
00000300: d6fa 203b b738 443b ccb4 723a dda9 583b
00000310: 30a4 463b 4fb4 703a ad7f 5cbb 5da7 25bb
00000320: 5727 0abb 7430 daba e815 14bb b311 37bb
00000330: 0b43 84bb 4e0a 88bb 885b afbb 4ec5 38bb
00000340: 78bf d5ba 3ccd 1fbb af51 ceba cc75 88ba
00000350: 0b14 55ba c419 1abb 1004 d23a b674 b13a
00000360: 4cc4 d1bc f393 d63d cf09 483d 8014 1cbe
00000370: b307 85bd f2b6 683e ea57 8ebd 6287 69be
00000380: d89f ebbd fa99 d0bd 8e0c 47bd 7a34 4bbe
00000390: 3cc7 20bd 9c39 c83b 2d70 dcbd b64c 0abe
000003a0: 5be6 47bd 9993 533d a850 b73c 3031 5e3e
000003b0: 723f 08bd 2923 c5bd eef9 cf3e d3e9 083f
000003c0: a104 0bbe 9f8f a6bd 2c0f c13e

model.3.bias f4 [9]
-0.0326213 -0.015781978 -0.061959226 1.9787967e-05 -0.014320783 -0.029509153 -0.035155836 -0.0044318973
-0.091783084
00000000: ea9d 05bd 3549 81bc f5c8 7dbd 56fe a537
00000010: b8a1 6abc 2ebd f1bc 91ff 0fbd 7339 91bb
00000020: c5f8 bbbd

model.6.weight f4 [9, 9, 3, 3]
-0.03677883 -0.062897146 -0.004771482 -0.08348098 -0.11363262 -0.044089753 -0.064385094 -0.033315863
-0.19115031 0.0046256124 0.106968686 0.15144041 -0.014872191 0.12328074 0.0019880948 -0.15888844
-0.099955186 -0.09235239 -0.15578489 -0.13152678 0.13758369 0.066658065 0.11853629 0.4293698
0.082450286 0.17893949 0.06322392 -1.8275935e-06 -1.8848447e-06 -3.598672e-06 -2.7754204e-06 -3.4838663e-06
-1.856462e-07 2.1827384e-06 1.8396067e-07 -2.0062796e-06 -0.024992673 0.043015286 0.180207 -0.03556583
0.0268966 -0.17099275 -0.256543 -0.21794334 -0.08404587 -0.020456372 -0.04926802 -0.074879065
-0.066036806 -0.033734143 -0.13038234 -0.17140606 -0.100720614 -0.06310285 0.06890353 0.094138056
-0.077109285 -0.06645 -0.07059834 0.0006686684 -0.19529687 -0.01441397 0.20025155 -0.0014147118
0.0028956637 0.0061039715 -0.0014037389 -0.0027993333 0.00049200177 -0.00027032045 -4.0987637e-05 0.002403916
-0.024501903 -0.112482995 0.32632306 -0.03949586 0.054502025 0.41618106 -0.16899991 -0.13639578
-0.3754466 -0.024931485 -0.0736436 -0.18357639 0.027107077 -0.09479186 -0.26703012 0.11513143
-0.059247024 -0.08769437 -0.067386046 0.12964651 0.09075934 0.14450529 0.48429525 0.30247813
0.027835865 0.23077573 0.035738673 0.0024395664 -0.10830198 -0.15102439 -0.20599557 -0.24558307
-0.06840688 -0.20124583 -0.20760866 0.0056076073 8.746804e-08 9.901689e-06 -0.00013588624 5.1458073e-09
-5.5460718e-05 -0.00014895241 5.123928e-07 -0.00010410361 -0.00010180598 -0.036345743 0.04569531 -0.12376355
0.029375197 0.4371759 0.4214363 0.1256967 0.32604092 0.19475853 0.13569778 0.07127313
0.0004295375 0.20302829 0.18699214 0.19605336 0.17614059 0.16280666 0.13676935 -0.22938226
-0.099536546 0.30367017 -0.07555935 0.04572631 -0.091448486 0.13491912 -0.04762179 -0.17432927
0.0014085929 -0.001026677 0.0045757787 -0.0013366657 -0.0012067591 0.002336597 -0.007007378 -0.0014500095
0.0012127091 -0.017647058 0.14896108 -0.097717784 -0.05386697 0.01322952 -0.049859572 -0.07058234
-0.04076599 0.078884326 -9.0620815e-05 -5.6349694e-05 3.9970586e-05 -0.0003050705 -0.00013395782 -2.7533972e-05
-0.0008343316 -0.0004942874 -0.00015527321 -0.00014890527 7.169171e-05 8.843018e-05 -0.00018845906 -1.0429569e-05
-3.3556087e-05 -8.7297725e-05 -3.4302328e-05 -0.00016470706 0.00012384182 0.00013326683 -0.00011093878 -3.29398e-05
-1.6126512e-05 -3.480159e-05 -0.0003207819 -0.00029610837 -0.00024397558 -9.3703e-10 -1.1860017e-07 5.3624376e-08
1.5712274e-08 -1.5767716e-07 -2.2056927e-08 3.5591107e-08 -3.8104994e-07 2.4294096e-08 -0.00020825122 0.00013122767
5.739738e-05 -0.00040638994 1.6723834e-07 -3.0332187e-05 -0.0004945598 8.494157e-05 -0.00013683889 -1.4141351e-05
-7.3769384e-05 5.1015642e-05 -0.00029495085 -0.0002750606 4.0050774e-05 -0.00057691016 -0.00031181032 0.0002809949
3.2817097e-06 1.7597726e-05 6.483391e-05 -0.00032333058 -0.00014850876 -8.970881e-05 8.0681086e-05 5.488785e-05
-0.00043286808 9.8935004e-08 -1.7065034e-07 -2.351588e-07 -3.9676846e-07 7.174151e-09 5.5019314e-08 -1.89996e-08
-1.0264047e-07 4.488939e-08 -0.00016528476 0.00015432478 7.986268e-06 -0.00028328126 4.9256876e-05 -0.00013394193
-0.00097006024 -0.00017591736 -0.00037327778 -2.1181471e-05 -5.6026005e-07 1.7030435e-06 -5.6398167e-05 2.2497291e-08
-2.0179874e-08 -7.780738e-05 -9.526653e-07 -2.5053396e-08 -3.618904e-08 9.4914935e-07 3.707913e-06 -6.524544e-08
00000000: 66a5 16bd 38d0 80bd 185a 9cbb 13f8 aabd
00000010: 38b8 e8bd 7597 34bd 55dc 83bd 3776 08bd
00000020: e8bc 43be 7392 973b 6612 db3d 3213 1b3e
00000030: 7daa 73bc 9d7a fc3d b24a 023b a7b3 22be
00000040: 4eb5 ccbd 4023 bdbd 1386 1fbe f5ae 06be
00000050: bde2 0c3e 0684 883d 28c3 f23d 5cd6 db3e
00000060: b2db a83d ea3b 373e 8b7b 813d a24b f5b5
00000070: c5fa fcb5 b780 71b6 5c41 3ab6 5ecc 69b6
00000080: 0a56 47b4 297b 1236 b986 4534 9fa3 06b6
00000090: 6fbd ccbc cc30 303d 2f88 383e 7aad 11bd
000000a0: 4256 dc3c b918 2fbe 9b59 83be 8a2c 5fbe
000000b0: 3e20 acbd 1f94 a7bc 43cd 49bd 325a 99bd
000000c0: 4e3e 87bd d02c 0abd f382 05be 1285 2fbe
000000d0: 9c46 cebd 113c 81bd 4b1d 8d3d 74cb c03d
000000e0: 79eb 9dbd f016 88bd dd95 90bd 9449 2f3a
000000f0: e7fb 47be 9228 6cbc be0e 4d3e da6d b9ba
00000100: 2dc5 3d3b d303 c83b a9fd b7ba 0575 37bb
00000110: aef9 003a ccb9 8db9 24ea 2bb8 058b 1d3b
00000120: 37b8 c8bc 7c5d e6bd d113 a73e 69c6 21bd
00000130: 843d 5f3d af15 d53e 500e 2dbe 56ab 0bbe
00000140: 893a c0be 1d3d ccbc 75d2 96bd 73fb 3bbe
00000150: a90f de3c 3c22 c2bd 2cb8 88be 07ca eb3d
00000160: 02ad 72bd 1b99 b3bd b201 8abd 0ec2 043e
00000170: 08e0 b93d 32f9 133e 8cf5 f73e 6ade 9a3e
00000180: 0a08 e43c 7950 6c3e b762 123d 22e1 1f3b
00000190: 6ecd ddbd 23a6 1abe 81f0 52be 217a 7bbe
000001a0: e818 8cbd 6313 4ebe 5d97 54be 05c0 b73b
000001b0: 10d6 bb33 6e1f 2637 af7c 0eb9 00cf b031
000001c0: 7e9e 68b8 1c30 1cb9 5d8b 0935 3352 dab8
000001d0: ab80 d5b8 46df 14bd 012b 3b3d be77 fdbd
000001e0: 41a4 f03c 85d5 df3e 80c6 d73e a3b6 003e
000001f0: d6ee a63e c86e 473e 5cf4 0a3e a6f7 913d
00000200: 8c33 e139 a6e6 4f3e de7a 3f3e 36c2 483e
00000210: 335e 343e cab6 263e 440d 0c3e 2fe3 6abe
00000220: d1d9 cbbd a87a 9b3e dcbe 9abd 834b 3b3d
00000230: 5849 bbbd 3d28 0a3e 110f 43bd 5f83 32be
00000240: 89a0 b83a 9091 86ba 6af0 953b 0f33 afba
00000250: 1e2c 9eba 9821 193b 269e e5bb 3f0e beba
00000260: c4f3 9e3a 9090 90bc 4189 183e 4320 c8bd
00000270: 9da3 5cbd a1c0 583c 8d39 4cbd 798d 90bd
00000280: 3dfa 26bd 1b8e a13d ae0b beb8 0659 6cb8
00000290: 17a6 2738 dff1 9fb9 0777 0cb9 c1f8 e6b7
000002a0: 0cb7 5aba 1193 01ba d6d0 22b9 7423 1cb9
000002b0: 3259 9638 9773 b938 189d 45b9 a8fa 2eb7
000002c0: 93be 0cb8 9c13 b7b8 d8df 0fb8 37b5 2cb9
000002d0: 89db 0139 8bbd 0b39 cea7 e8b8 d728 0ab8
000002e0: 6c47 87b7 ecf7 11b8 9e2e a8b9 fe3e 9bb9
000002f0: b2d3 7fb9 d0c8 80b0 22b1 feb3 a050 6633
00000300: a8f7 8632 f84d 29b4 b277 bdb2 d6dc 1833
00000310: 1b93 ccb4 48af d032 035e 5ab9 299a 0939
00000320: f8bd 7038 bc10 d5b9 2092 3334 e071 feb7
00000330: 59a5 01ba a822 b238 697c 0fb9 a440 6db7
00000340: a3b4 9ab8 a1f9 5538 a2a3 9ab9 0236 90b9
00000350: 31fc 2738 c93b 17ba 797a a3b9 7f52 9339
00000360: 583b 5c36 d49e 9337 71f7 8738 b284 a9b9
00000370: 04b9 1bb9 0d22 bcb8 5433 a938 6137 6638
00000380: 92f2 e2b9 1876 d433 023c 37b4 f57f 7cb4
00000390: 7103 d5b4 8080 f631 604e 6c33 9034 a3b2
000003a0: 326b dcb3 68cc 4033 4a50 2db9 3ed2 2139
000003b0: c3fc 0537 5e85 94b9 2b99 4e38 c372 0cb9
000003c0: a44b 7eba 7576 38b9 7fb4 c3b9 ddae b1b7
000003d0: c764 16b5 2194 e435 128d 6cb8 1140 c132
000003e0: 0358 adb2 852c a3b8 a9ba 7fb5 0035 d7b2
000003f0: 456e 1bb3 0cc9 7e35 76d5 7836 0f1d 8cb3

model.6.bias f4 [9]
-0.05084929 -0.005166141 -0.00046575876 -1.46693e-05 -0.0016064752 -2.400283e-06 -0.020132277 -0.034629494
-0.037343163
00000000: 5847 50bd bb48 a9bb 1531 f4b9 2a1c 76b7
00000010: 5d90 d2ba 8c14 21b6 72ec a4bc a8d7 0dbd
00000020: 25f5 18bd

model.10.weight f4 [128, 81]
-2.868188e-05 -1.5306718e-05 -3.9960323e-06 2.763267e-05 1.3057648e-05 6.8019003e-06 -6.649452e-05 -0.00014261539
0.00010946065 -2.823942e-06 -8.570666e-08 -1.0723885e-06 7.456011e-06 -7.191569e-06 9.72591e-06 1.8027526e-06
1.7913486e-05 2.8320675e-05 -1.3319698e-10 -2.810506e-12 -7.9799375e-11 1.1193805e-17 -1.6735496e-16 6.799875e-13
3.840499e-15 1.5796123e-11 -3.4088392e-12 3.5925059e-12 -1.4332292e-17 2.1557964e-12 -1.7328697e-12 -8.1928786e-19
-4.355425e-12 6.7860507e-13 5.027927e-20 -1.2395185e-11 -1.2604425e-05 -4.6045484e-06 -7.722444e-11 1.4826751e-06
2.9313025e-05 -4.382759e-10 -0.00015573518 9.2451324e-10 -1.4039313e-05 -1.1991981e-10 -3.782006e-12 1.2040197e-09
-1.2221346e-09 4.597741e-09 -3.9818855e-09 7.772926e-05 8.6643864e-05 -4.353142e-09 7.651339e-05 -0.00011713291
-4.689675e-05 -9.130245e-06 2.13636e-05 0.0001439855 9.605591e-05 0.00019463027 -4.738911e-05 -4.4968532e-05
3.9236125e-05 6.766176e-05 3.8385486e-05 -4.2056887e-05 3.6146044e-05 5.7174348e-05 -0.00023507269 7.926247e-05
2.553753e-06 4.5108015e-07 8.519621e-06 2.0063247e-08 -5.8731916e-07 -8.58947e-06 2.161209e-07 -2.6896055e-06
-0.00013311769 -0.0005222807 -0.0007819306 -0.0010322853 -0.00023543698 2.4558278e-05 -0.00016119267 -0.00023993824
-0.0003428222 0.00026465225 -0.0010390031 -0.00012733211 -6.29398e-05 -0.0002739656 -0.0002946932 -0.00037276628
-8.149023e-05 -0.00028299243 -0.00012191583 -2.0736509e-07 -1.2453398e-07 3.2188208e-07 -7.540318e-08 9.369966e-09
-4.6031553e-07 2.1334363e-06 5.679193e-08 -1.4863465e-07 2.2595238e-10 -2.2975892e-13 -9.40363e-13 -1.1056303e-08
3.054782e-13 -4.6714697e-14 -2.6152483e-08 9.2484487e-10 -1.8238418e-11 -1.7033075e-06 4.1633637e-05 2.8320628e-06
4.5079567e-08 -0.0002768353 7.9133605e-07 3.7980544e-07 4.3111586e-12 -1.7558855e-06 -3.5954582e-09 1.0597319e-09
-9.243398e-09 -1.5512658e-09 -5.600981e-09 2.0223139e-08 -2.0533324e-08 -6.4320975e-09 -1.38379015e-08 9.14317e-05
-0.00030397746 -0.00040444045 0.00024901555 0.00048412825 0.00073024933 -9.618771e-05 0.00016311608 0.0001529615
0.00022464889 -0.00013123684 -8.264551e-05 0.000705066 0.00041651318 0.0010244983 -5.4253214e-05 -0.00035968848
-0.0002909529 -0.0007975629 -0.00043888815 -0.00012574698 -0.0006623393 -1.0773423e-05 -0.0003343947 0.00013462972
-0.0006629875 -0.0002701073 1.1724283e-06 9.2439734e-07 -2.4111426e-07 -6.171407e-07 -1.5761678e-06 2.057171e-06
-1.6793526e-07 3.5970797e-07 -1.0773844e-06 -4.1546843e-07 -2.1126341e-07 -3.533848e-07 1.0585187e-07 7.8819244e-07
1.3649911e-06 -2.1802612e-07 1.958797e-06 -2.2805456e-07 1.9865452e-06 1.9498122e-08 1.8125093e-09 -7.755263e-11
6.84948e-08 -5.305262e-09 -3.6046465e-08 7.096844e-08 -1.0437436e-08 -4.2859406e-14 -6.127716e-14 -8.207668e-13
7.5192543e-13 1.9528438e-14 1.0111755e-11 3.6141565e-12 -1.9879272e-12 -4.0054514e-12 5.3372196e-07 1.2319139e-11
-1.5079694e-10 8.155293e-08 -1.2933882e-12 4.5141387e-11 2.7529737e-08 -4.8275783e-11 -9.316094e-11 -2.340465e-10
4.742914e-15 9.711286e-17 -1.5193611e-16 8.924586e-18 1.4199589e-16 -1.8397074e-16 -1.214509e-17 4.0439305e-17
1.593589e-07 5.252711e-07 -4.9229243e-09 8.807679e-07 3.6098754e-07 -3.4427896e-07 7.2379254e-07 -4.183771e-07
-5.386985e-07 8.639229e-07 -1.9118854e-06 -1.3762957e-08 -8.631922e-07 -1.875171e-06 -7.2624397e-07 -1.3908189e-06
-3.3033675e-06 -3.6459417e-07 -6.715062e-07 1.3218578e-06 1.2400706e-06 4.3317885e-07 2.956883e-07 6.19103e-07
3.725841e-07 4.1381895e-07 -1.4453019e-06 2.4888642e-08 -5.483183e-09 -5.1147384e-09 -1.3474188e-07 -2.2481683e-07
1.40165e-07 -9.484217e-08 -9.099972e-08 -1.1946567e-07 1.743271e-07 -9.5213466e-08 -9.824318e-08 -1.5845973e-07
00000000: de99 f0b7 ed66 80b7 a815 86b6 b5cc e737
00000010: 2c12 5b37 e13b e436 f972 8bb8 078b 15b9
00000020: 3d8e e538 f482 3db6 bc0d b8b3 fdee 8fb5
00000030: a62e fa36 1b4f f1b6 772c 2337 1cf6 f135
00000040: eb44 9637 3092 ed37 9e73 12af 93c5 45ac
00000050: 0e7b afae 407d 4e23 77f2 40a5 4366 3f2b
00000060: 5a5e 8a27 b5f1 8a2d 30e0 6fac d5cc 7c2c
00000070: 2b31 84a3 60b3 172c 36e1 f3ab a4cf 71a1
00000080: 2e3e 99ac a602 3f2b e86f 6d1f f30e 5aad
00000090: 9877 53b7 c580 9ab6 7fd1 a9ae 5400 c735
000000a0: 3ee5 f537 d9f1 f0af d84c 23b9 d620 7e30
000000b0: 648a 6bb7 6dda 03af 4811 85ac ad7a a530
000000c0: 0af8 a7b0 28fa 9d31 09d1 88b1 9402 a338
000000d0: 92b4 b538 a492 95b1 d075 a038 41a5 f5b8
000000e0: 00b3 44b8 1b2e 19b7 fb35 b337 d0fa 1639
000000f0: a071 c938 aa15 4c39 abc3 46b8 989c 3cb8
00000100: 7891 2438 a1e5 8d38 1a00 2138 3d66 30b8
00000110: 859b 1738 7dce 6f38 d87d 76b9 b739 a638
00000120: 2461 2b36 fc2b f234 7eef 0e37 8c57 ac32
00000130: 44a8 1db5 7e1b 10b7 dc0e 6834 127f 34b6
00000140: 8295 0bb9 aae9 08ba 79fa 4cba bf4d 87ba
00000150: a2df 76b9 8002 ce37 d405 29b9 ee97 7bb9
00000160: d1bc b3b9 06c1 8a39 292f 88ba 7484 05b9
00000170: 8cfe 83b8 0aa3 8fb9 0d81 9ab9 d86f c3b9
00000180: bce5 aab8 9a5e 94b9 10ad ffb8 15a8 5eb4
00000190: a4b7 05b4 23cf ac34 56ed a1b3 8cf9 2032
000001a0: 4921 f7b4 282c 0f36 63eb 7333 6298 1fb4
000001b0: f16f 782f c057 81aa 2658 84ab 23f2 3db2
000001c0: 0cf8 ab2a 6162 52a9 eba5 e0b2 2c38 7e30
000001d0: 446d a0ad 339d e4b5 c79f 2e38 780e 3e36
000001e0: 829d 4133 3424 91b9 336c 5435 10e8 cb34
000001f0: 77af 972c c4ab ebb5 f813 77b1 00a6 9130
00000200: e5cc 1eb2 5034 d5b0 c072 c0b1 27b7 ad32
00000210: 4261 b0b2 5401 ddb1 bcbb 6db2 05bf bf38
00000220: 2a5f 9fb9 140b d4b9 4d8e 8239 98d2 fd39
00000230: 346e 3f3a 62b8 c9b8 240a 2b39 4a64 2039
00000240: ba8f 6b39 9f9c 09b9 f851 adb8 2ed4 383a
00000250: 745f da39 7548 863a f28d 63b8 9294 bcb9
00000260: 0a8b 98b9 8a13 51ba 921a e6b9 f3da 03b9
00000270: d7a0 2dba 80bf 34b7 b251 afb9 642b 0d39
00000280: 57cc 2dba 309d 8db9 545c 9d35 1a24 7835
00000290: 7e72 81b4 96a9 25b5 b78c d3b5 ee0d 0a36
000002a0: b151 34b4 e31d c134 a59a 90b5 8c0d dfb4
000002b0: a5d7 62b4 d6b8 bdb4 ae50 e333 2c94 5335
000002c0: bd34 b735 901a 6ab4 e073 0336 29df 74b4
000002d0: 9650 0536 d37c a732 001c f930 408a aaae
000002e0: 6a17 9333 9449 b6b1 82d1 1ab3 5067 9833
000002f0: 5450 33b2 8805 41a9 e1fb 89a9 7b06 67ab
00000300: f0a5 532b 83e5 af28 4ce3 312d db52 7e2c
00000310: 50e3 0bac e6ed 8cac 1845 0f35 78b8 582d
00000320: 91cd 25af 3322 af33 3907 b6ab af88 462e
00000330: 887a ec32 b351 54ae f2dc ccae 1eab 80af
00000340: a9e1 aa27 50ed df24 a02b 2fa5 2aa1 2423
00000350: cab5 2325 941a 54a5 9109 60a3 4e7e 3a24
00000360: 3e1c 2b34 5b00 0d35 8026 a9b1 e96d 6c35
00000370: c0cd c134 57d5 b8b4 a54a 4235 509d e0b4
00000380: 149b 10b5 54e8 6735 f14d 00b6 2072 6cb2
00000390: 1eb6 67b5 63ae fbb5 1bf3 42b5 2cac bab5
000003a0: 6caf 5db6 71bd c3b4 8e41 34b5 b06a b135
000003b0: 8070 a635 a68f e834 17bf 9e34 6f30 2635
000003c0: 9207 c834 d82a de34 32fc c1b5 b4ca d532
000003d0: 9666 bcb1 b7bd afb1 91ad 10b4 2e65 71b4
000003e0: 4380 1634 09ac cbb3 a06b c3b3 7946 00b4
000003f0: ab2e 3b34 2878 ccb3 c2f9 d2b3 1425 2ab4

model.10.bias f4 [128]
-7.2073426e-06 -0.00026150057 1.8409565e-07 5.0542543e-08 0.008823708 -0.0005498134 0.027483247 9.959791e-09
3.772474e-08 -0.0011054395 0.051346462 -2.3675938e-08 -0.009730878 0.01925248 -6.318762e-06 -0.029221125
-9.62201e-07 1.1747784e-06 0.00010996207 5.631522e-05 0.00179711 -0.00010116427 2.9692397e-05 7.75208e-07
8.3211724e-08 -1.0813896e-08 9.3657185e-08 1.4953878e-06 1.9590705e-06 -0.018359505 6.365768e-06 2.3196492e-08
4.182478e-07 9.15575e-07 -5.2202154e-09 -0.00085823255 -3.245454e-05 0.008429707 9.574333e-09 9.861833e-08
-2.1970247e-14 0.022101725 0.0007990523 0.0018557558 -0.0069401637 8.689344e-05 1.7289862e-05 -2.8043832e-08
-9.3391165e-05 -0.026760168 -0.00028246152 6.374659e-05 -0.00053293974 0.000120423196 6.855441e-08 -2.9403657e-06
0.009491116 -1.1797052e-08 0.001414453 0.011415876 4.6075595e-05 2.2679205e-09 -4.532852e-06 -0.00038371212
-3.136082e-05 -0.0002105587 7.0341004e-09 -9.389085e-06 -0.0011777553 -1.8258469e-08 0.0011254683 5.0112816e-05
-4.696397e-05 -0.01582364 -4.283773e-08 -0.0008886171 -0.0060102143 1.5066926e-06 -0.005346753 2.340774e-05
9.696182e-10 -4.0353885e-07 -3.7724494e-05 1.6835053e-05 -9.676381e-07 -3.314437e-06 0.000410175 0.028692245
-2.4687135e-06 -1.9203662e-06 -3.2857555e-05 1.0231923e-07 -6.4657997e-06 -1.0512008e-07 -2.460606e-06 -1.7260921e-06
2.8880237e-05 -1.3662086e-07 4.4546273e-06 0.00019576635 0.0047029685 -5.4916143e-09 0.004020323 -7.0681267e-07
1.0904402e-05 8.3558575e-08 1.1502941e-08 -0.0069425423 -3.372726e-07 1.0796812e-06 -0.0016608263 -0.0001070032
4.7740492e-08 -7.696743e-08 4.765267e-08 -0.0021759027 -8.298828e-06 -4.8101473e-10 9.185203e-06 3.90541e-07
-0.0010099087 0.0050032022 -5.9517565e-06 7.462561e-06 -6.8645168e-06 4.1163986e-07 -3.6329467e-07 1.3290553e-07
00000000: 9ad6 f1b6 031a 89b9 d4ab 4534 1d14 5933
00000010: 5091 103c 5a21 10ba 8c24 e13c a01b 2b32
00000020: ca06 2233 65e4 90ba ab50 523d f05f cbb2
00000030: 436e 1fbc 60b7 9d3c c105 d4b6 2461 efbc
00000040: fa24 81b5 14ad 9d35 709b e638 0234 6c38
00000050: 018d eb3a 2728 d4b8 f013 f937 e317 5035
00000060: 21b2 b233 04c8 39b2 9520 c933 22b5 c835
00000070: 9378 0336 ac66 96bc 8899 d536 a041 c732
00000080: 8a8b e034 d6c5 7535 805d b3b1 03fb 60ba
00000090: cc1f 08b8 c11c 0a3c 5d7c 2432 00c8 d333
000000a0: f1e3 c5a8 ad0e b53c 7e77 513a d53c f33a
000000b0: 506a e3bb 8f3a b638 b209 9137 0ae5 f0b2
000000c0: 00db c3b8 2438 dbbc 5817 94b9 b1af 8538
000000d0: fbb4 0bba b68b fc38 2f38 9333 1953 45b6
000000e0: a080 1b3c fcab 4ab2 2b65 b93a a809 3b3c
000000f0: 4b41 4138 aed9 1b31 e718 98b6 f82c c9b9
00000100: 6d89 03b8 6cc9 5cb9 9ab0 f131 d085 1db7
00000110: e95e 9aba ccd6 9cb2 7384 933a 3a30 5238
00000120: 2efb 44b8 94a0 81bc 95fc 37b3 16f2 68ba
00000130: 55f1 c4bb 9039 ca35 d133 afbb bd5b c437
00000140: 6843 8530 f5a5 d8b4 5e3a 1eb8 0039 8d37
00000150: cbdf 81b5 986d 5eb6 c20c d739 000c eb3c
00000160: 2dac 25b6 a4df 00b6 88d0 09b8 97ba db33
00000170: ccf4 d8b6 60be e1b3 e420 25b6 13ac e7b5
00000180: d643 f237 0eb2 12b4 f578 9536 a146 4d39
00000190: 5c1b 9a3b c0b0 bcb1 eabc 833b ccbb 3db5
000001a0: 0df2 3637 d070 b333 789e 4532 447e e3bb
000001b0: 6512 b5b4 90e9 9035 15b0 d9ba e866 e0b8
000001c0: 3a0b 4d33 4b49 a5b3 aaaa 4c33 9799 0ebb
000001d0: 323b 0bb7 6738 04b0 261a 1a37 8cab d134
000001e0: ea5e 84ba e7f1 a33b 33b5 c7b6 e966 fa36
000001f0: c055 e6b6 5aff dc34 d70a c3b4 cbb4 0e34

model.12.weight f4 [64, 128]
1.928884e-06 0.0015300522 -2.1610073e-07 -9.244595e-09 0.42884415 -0.0014170294 -0.047961477 7.2029267e-09
4.4227857e-08 -0.005601001 0.11345005 1.8156841e-06 0.14027566 0.12465099 2.4549045e-05 -0.11578738
5.5105766e-06 -5.414026e-06 9.4035604e-05 -0.001568116 0.0036550616 -9.111903e-06 0.005064128 2.556317e-06
-1.3977616e-07 1.9656123e-09 -8.02345e-07 -4.013262e-06 -2.8005014e-05 0.0049309544 -5.4316082e-05 -5.415845e-08
9.052999e-07 6.6633714e-07 1.2873774e-10 0.036947105 6.165344e-07 -0.113173015 3.027026e-08 5.825136e-07
-3.8582527e-14 -0.13248836 0.0030756746 0.0010584116 0.20953333 -3.127885e-05 0.00023698021 7.079949e-09
0.00015249845 -0.03887819 -0.00089120347 0.00017701989 0.0022534565 -0.0012653816 -9.766685e-07 6.423187e-06
-0.17097926 4.7806452e-08 0.0020207106 -0.30015475 0.00055190607 7.5414235e-08 1.2065112e-05 0.0024024085
0.0017163536 -3.369489e-05 -1.5593326e-08 -4.309432e-05 0.011452303 -3.9733525e-08 0.0029378375 -0.012973134
-5.1167986e-05 0.38344216 -9.7000616e-08 0.00028543847 0.007997665 6.316684e-05 -0.058625598 -1.6480736e-06
-1.4751351e-08 6.1402693e-07 2.001749e-05 -0.0014281393 1.6598824e-05 1.9162477e-05 0.00020482694 0.11195472
1.297459e-05 7.6522365e-06 -0.000389931 -5.202265e-07 5.8043515e-05 -2.5252378e-08 2.1625798e-05 -7.1495874e-06
2.2035856e-05 -1.4390268e-06 6.056271e-06 0.0004686423 0.0002637247 1.5298665e-08 0.16380085 -0.00018541946
-1.5307241e-05 9.742092e-07 -7.4247936e-08 -0.009052999 -3.6695337e-07 -2.8821605e-06 0.0012676982 -4.016838e-05
-3.3555776e-09 -1.0104827e-06 -1.4035116e-07 -0.003157792 1.3607156e-06 -2.0801456e-09 -1.7541151e-06 8.133384e-07
0.000554984 0.14007594 -0.00013579048 -1.1403878e-05 -7.5088806e-06 3.4694876e-06 -3.8964808e-07 7.500451e-08
7.297529e-11 2.6180774e-06 1.1164933e-08 2.0726082e-19 0.00017622802 3.6573038e-06 0.00011376005 2.4308014e-14
2.6459035e-11 -1.2582402e-06 5.441998e-07 -2.6078422e-11 0.0001447394 -3.7159625e-06 3.8700243e-08 -8.569448e-06
-3.5036205e-09 1.3664566e-08 4.7387414e-07 -2.0227653e-06 5.4719494e-06 -3.382554e-07 -2.4024711e-08 -1.2518159e-08
1.3664377e-10 3.2445248e-11 -3.8242452e-19 9.5106134e-07 1.4819909e-10 -1.2828619e-05 -4.9166996e-08 -2.628218e-10
5.5344773e-09 -1.5224126e-14 -6.185046e-12 -5.992998e-05 2.463168e-09 -5.910239e-05 3.4262415e-13 5.7997955e-12
1.9477887e-18 3.4714185e-06 2.6233342e-06 -3.364854e-08 -9.071415e-05 5.582041e-10 1.8203998e-08 -3.9812518e-11
-9.774164e-09 4.4198285e-05 3.0549595e-06 -1.291734e-06 -3.4860277e-06 -1.5888775e-08 1.462874e-13 3.4566967e-13
-3.940613e-05 7.272263e-14 5.2735254e-06 4.500865e-05 9.921217e-10 -1.8430671e-10 -1.11859313e-10 6.25256e-07
6.7009576e-10 1.2912087e-06 2.2460511e-09 -5.424033e-07 5.490826e-07 2.5232504e-11 -4.5657094e-07 4.8512684e-06
-1.5524382e-08 0.0001317655 3.4599264e-11 1.4984346e-05 -1.0062475e-05 3.0210202e-07 -8.588622e-06 1.4212833e-09
-1.0406103e-12 -2.8290484e-10 4.470341e-09 -4.02451e-07 -1.0202431e-09 -1.5049216e-07 1.5209113e-05 -2.2960899e-07
-2.2453243e-08 -1.45740575e-08 -5.8879884e-10 -9.073952e-12 3.53093e-08 -2.53785e-10 -3.764834e-12 1.9256081e-08
1.9507706e-08 -5.0610716e-09 -9.43979e-09 -5.221097e-10 7.3084757e-06 -1.40139185e-11 -7.440621e-05 -8.881548e-08
-3.333879e-07 -6.963652e-10 -1.3658199e-11 5.49322e-08 -1.3010271e-09 2.303889e-08 -4.350454e-09 -5.098265e-07
1.7656419e-12 1.8210211e-10 2.7962124e-13 -1.97229e-06 3.8415493e-10 1.9440582e-12 -1.8587297e-08 3.8930956e-10
7.475989e-09 -0.00025907613 -9.201181e-08 2.6528342e-08 -1.22936425e-08 4.571229e-13 4.7868735e-13 -3.524495e-13
00000000: fa71 0136 088c c83a 5109 68b4 29d2 1eb2
00000010: 7691 db3e 9ebb b9ba 4173 44bd 9d7d f731
00000020: 0bf5 3d33 9a88 b7bb 8058 e83d 6eb2 f335
00000030: 6ca4 0f3e 0549 ff3d acee cd37 ef21 edbd
00000040: 7ee7 b836 21aa b5b6 fb34 c538 3e89 cdba
00000050: c289 6f3b 53df 18b7 fcf0 a53b 318d 2b36
00000060: 6115 16b4 6b13 0731 bb60 57b5 a8a9 86b6
00000070: 4fec eab7 d893 a13b 73d1 63b8 d89b 68b3
00000080: bc03 7335 57de 3235 748c 0d2f d955 173d
00000090: ec7f 2535 41c7 e7bd 8102 0233 085e 1c35
000000a0: a0c2 2da9 07ab 07be 4291 493b 66ba 8a3a
000000b0: e88f 563e 6931 03b8 e47d 7839 e443 f331
000000c0: fee7 1f39 bd3e 1fbd a79f 69ba 6a9e 3939
000000d0: baae 133b 29db a5ba 1316 83b5 c286 d736
000000e0: 3015 2fbe c053 4d33 e66d 043b e2ad 99be
000000f0: caad 103a 6af3 a133 436b 4a37 ba71 1d3b
00000100: 45f7 e03a 9d53 0db8 16f2 85b2 2cc0 34b8
00000110: 71a2 3b3c 79a7 2ab3 bc88 403b 458d 54bc
00000120: 359d 56b8 8852 c43e a74e d0b3 e7a6 9539
00000130: a308 033c 7078 8438 6521 70bd 6133 ddb5
00000140: 216d 7db2 9cd3 2435 3ceb a737 6730 bbba
00000150: b43d 8b37 1bbf a037 d0c6 5639 8448 e53d
00000160: 71ad 5937 1b62 0037 a76f ccb9 b1a5 0bb5
00000170: c073 7338 91ea d8b2 0c69 b537 7de6 efb6
00000180: a4d9 b837 9624 c1b5 f936 cb36 1bb4 f539
00000190: 8844 8a39 1f6a 8332 69bb 273e 286d 42b9
000001a0: 0d68 80b7 93c1 8235 3c72 9fb3 0853 14bc
000001b0: b001 c5b4 246b 41b6 e528 a63a 787a 28b8
000001c0: f297 66b1 ec9f 87b5 6fb3 16b4 f5f2 4ebb
000001d0: d5a1 b635 4ff2 0eb1 f06e ebb5 3054 5a35
000001e0: 597c 113a 1170 0f3e fb62 0eb9 4853 3fb7
000001f0: cbf4 fbb6 58d5 6836 d330 d1b4 2a12 a133
00000200: 7079 a02e 3ab2 2f36 e5cf 3f32 bdb0 7420
00000210: d9c9 3839 0070 7536 7692 ee38 77f2 da28
00000220: 73bc e82d cee0 a8b5 2015 1235 6363 e5ad
00000230: 30c5 1739 c05f 79b6 5e37 2633 80c5 0fb7
00000240: 58c4 70b1 66c1 6a32 c468 fe34 d8be 07b6
00000250: b09b b736 7899 b5b4 e65e ceb2 720f 57b2
00000260: cd3d 162f 1ab2 0e2e 5cbe e1a0 704c 7f35
00000270: 56f2 222f 803a 57b7 af2b 53b3 e17c 90af
00000280: c729 be31 7220 89a8 f19d d9ac 535d 7bb8
00000290: 8244 2931 b5e4 77b8 58e1 c02a ea0f cc2c
000002a0: b0b8 0f22 84f6 6836 8a0c 3036 f684 10b3
000002b0: ca3d beb8 1f70 1930 045f 9c32 e918 2fae
000002c0: 3aeb 27b2 8c61 3938 ce03 4d36 a45f adb5
000002d0: 80f1 69b6 c97b 88b2 79b4 242a 4098 c22a
000002e0: 0348 25b8 bec1 a329 3df3 b036 acc7 3c38
000002f0: 2e5b 8830 baa5 4aaf 32fb f5ae 44d7 2735
00000300: cc31 3830 984d ad35 f358 1a31 ac99 11b5
00000310: ab64 1335 8cf2 dd2d a21e f5b4 14c8 a236
00000320: 7a5a 85b2 882a 0a39 4f2b 182e 4765 7b37
00000330: 00d2 28b7 9630 a234 da17 10b7 f656 c330
00000340: f073 92ab 5187 9baf 8999 9931 7210 d8b4
00000350: 9d38 8cb0 f896 21b4 a52a 7f37 708a 76b4
00000360: 34df c0b2 6261 7ab2 09d9 21b0 72a1 1fad
00000370: fca6 1733 1085 8baf 9c76 84ac 9268 a532
00000380: e691 a732 a8e5 adb1 a32c 22b2 3484 0fb0
00000390: 543b f536 1489 76ad 880a 9cb8 d4ba beb3
000003a0: 7cfc b2b4 586a 3fb0 0f47 70ad 98ee 6b33
000003b0: d2cf b2b0 0ee7 c532 007b 95b1 03db 08b5
000003c0: f47d f82b 3039 482f ab69 9d2a af5b 04b6
000003d0: 0031 d32f 0acd 082c e6a9 9fb2 7306 d62f
000003e0: bf6f 0032 9cd4 87b9 0798 c5b3 71e0 e332
000003f0: 0334 53b2 2dab 002b 0fbd 062b 5369 c6aa

model.12.bias f4 [64]
0.0033802488 -7.670618e-06 0.0018185817 -0.01528243 7.805495e-08 -0.00071213336 1.9895924e-07 0.00030249404
-1.2981037e-06 -0.0006809036 0.00095104636 0.00021992426 0.002928434 0.0022646263 -0.002426526 2.3981149e-05
-2.107375e-05 -0.0040376917 0.00013775312 -0.0062953 -1.8185798e-05 0.0023359032 -4.3946815e-07 0.001831152
0.0057095746 -3.6271676e-06 -0.000100330275 -0.0024446335 9.1199385e-05 1.4071588e-05 -2.353308e-05 0.051428247
0.043260083 0.00023124035 -0.010302235 0.00016676306 0.0036775828 -3.0652814e-08 -0.007813806 -5.6635236e-07
-0.0017885265 4.182358e-06 0.0061048856 0.015687421 -0.00017840463 0.008008181 -4.1365707e-05 -0.00016403364
9.786506e-07 -4.036581e-05 0.0015018341 0.0005728251 0.0017746628 -0.002252682 3.7554514e-06 -1.3127151e-05
2.7469694e-05 -9.468521e-05 -0.0003301589 1.5280057e-07 -1.9950367e-06 0.0021967012 9.86648e-07 9.467685e-07
00000000: 2a87 5d3b 0eb1 00b7 7a5d ee3a 2863 7abc
00000010: 2a9f a733 76ae 3aba 80a1 5534 1098 9e39
00000020: 813a aeb5 ab7e 32ba a44f 793a 789b 6639
00000030: f8ea 3f3b 206a 143b 5a06 1fbb 202b c937
00000040: 89c7 b0b7 9d4e 84bb d271 1039 ce48 cebb
00000050: b48d 98b7 f415 193b 0bf0 ebb4 4403 f03a
00000060: 6217 bb3b 446a 73b6 6868 d2b8 2536 20bb
00000070: 4c42 bf38 0315 6c37 e868 c5b7 6da6 523d
00000080: 7c31 313d 1c79 7239 b5ca 28bc 1edd 2e39
00000090: 9a03 713b 20a7 03b3 7a05 00bc 7007 18b5
000000a0: fe6c eaba 2f56 8c36 7e0b c83b e882 803c
000000b0: 2112 3bb9 bf34 033c 1780 2db8 7200 2cb9
000000c0: 2e5a 8335 754e 29b8 31d9 c43a a429 163a
000000d0: cd9b e83a bca1 13bb 2a06 7c36 af3c 5cb7
000000e0: b86e e637 bc91 c6b8 2d19 adb9 8011 2434
000000f0: 78e2 05b6 88f6 0f3b f86c 8435 7025 7e35

model.14.weight f4 [10, 64]
0.23738165 0.00015845709 -0.012162153 0.0061905473 -2.5934727e-07 0.00051109947 -1.1434629e-07 9.828598e-05
-1.0167838e-07 0.0028482683 0.0046305936 0.0017112908 0.010190524 -0.14889172 0.0029324412 0.0046866834
0.00014583278 0.4944172 2.1796699e-05 -0.022361994 1.6846972e-06 0.0013279824 3.6287304e-07 -0.00521074
-0.16106345 2.869967e-06 -8.9590685e-06 0.0004558717 7.5077405e-05 -0.0002257495 -0.0011897815 -0.22959925
-0.02028165 -0.24064311 -0.022679744 -0.23326913 0.001820693 -1.9613893e-07 0.001070432 9.341794e-07
-0.0017845612 6.0545995e-06 -0.09912995 0.032325972 -0.00043830197 0.13889201 0.00013428746 0.00022231329
1.9403449e-06 5.17715e-05 0.0010038572 -0.000649575 0.002347929 -0.002592118 -0.00011397239 -1.0193e-06
9.590314e-06 5.4568234e-05 0.0003090461 -6.167561e-05 8.886801e-06 -0.0007347496 2.463419e-07 -3.795119e-07
-0.09899205 8.440393e-05 -0.0003634701 0.025052007 -6.3956634e-08 -0.00040472063 4.7486847e-07 -8.934834e-05
-6.918759e-06 0.011836367 0.0018600428 0.0038937593 -0.0009880875 -0.13273032 0.019889591 -0.00096048194
-9.285148e-05 -0.057551883 2.6085414e-05 -0.0069796443 6.343561e-05 -0.00090413954 7.0452876e-07 -0.0005872685
-0.16167027 4.1641592e-06 -0.00011522331 0.002466661 1.562345e-05 -3.5611956e-05 -0.000303595 0.27384728
0.6139184 -0.05361863 0.0011680044 -0.09908631 0.0013427977 1.97384e-07 0.0058431677 -1.2198486e-06
0.00028897717 -1.0499261e-06 0.07334964 -0.053733006 -0.0009420197 -0.23879005 -0.0010581786 -0.00024553828
1.0330602e-06 -8.141863e-05 -0.00040727993 0.00025477118 -1.8990153e-05 -0.0020408728 2.1108932e-05 5.1778512e-05
-1.3328725e-05 -3.253707e-05 -8.688329e-05 2.4407161e-06 -1.0054149e-06 0.0025030356 6.974077e-08 -1.0702713e-06
-0.32449776 -2.5031732e-05 -0.0022263916 -0.009287064 -3.9502495e-07 -0.00023198561 2.8396147e-07 0.00053868827
-2.3485131e-06 -0.006237022 0.0005596893 9.422753e-05 -0.004410159 -0.06226659 -0.02243886 0.0003517428
1.4372021e-05 0.36548978 0.00034380157 0.023350758 -3.6644433e-06 -0.0049518417 -2.1003913e-07 0.00010121282
-0.032697417 1.1924603e-05 -3.5057863e-05 -0.00057040737 0.000121036755 0.000104501836 0.00094356574 0.2021973
-0.08975121 0.44668022 0.07396653 -0.15448758 0.018228866 -1.103009e-07 0.045245863 2.0659559e-06
0.00012906911 -9.411939e-06 -0.059101015 -0.10835768 0.00010698111 -0.21275656 0.0009927666 -0.000116327385
3.9866236e-06 -0.00030632073 -0.0014006986 0.00086755434 -0.0011075819 -0.0027342879 0.00027009053 -2.7460597e-05
-9.162031e-05 3.3483648e-05 -2.4661695e-06 9.234156e-06 1.0697592e-05 0.0003316229 -1.2820244e-06 -3.507431e-06
-0.23768812 1.8238157e-05 0.0011603582 -0.007479491 2.1558253e-07 0.0003342291 -5.959334e-07 -0.00080723147
-7.935937e-06 0.0005357943 -0.005137805 -0.0037406709 0.011238553 -0.03345987 0.001819691 -0.0035042136
-8.515293e-05 -0.08382044 -0.00023033787 -0.004345188 -4.4346702e-06 0.0004432666 -1.0219171e-06 0.00604776
-0.14486563 1.4674919e-07 -0.00012916222 0.00044389768 0.00014436127 6.389987e-05 0.0008339609 -0.14367521
-0.050249394 0.07948623 -0.08869282 0.11585555 -0.026035951 2.1867647e-08 -0.036835272 1.3755443e-06
0.0005504596 2.0281424e-05 0.6481514 -0.06466121 -4.1943465e-05 0.037839025 0.004797262 0.0013061676
2.1130213e-06 9.318084e-05 0.0014435839 -0.0013099543 0.00699211 0.004662016 -3.6916277e-05 -2.6631094e-05
3.4738125e-05 -5.737051e-05 -9.547453e-05 1.3515869e-05 -2.592882e-06 -0.0035436081 3.6675096e-06 6.6350226e-06
00000000: 2d14 733e 8027 2639 c443 47bc 13da ca3b
00000010: 6b3c 8bb4 4efb 053a 8a8e f5b3 e21e ce38
00000020: 485a dab3 03aa 3a3b 3cbc 973b 644d e03a
00000030: 28f6 263c 1277 18be 332e 403b c092 993b
00000040: b0ea 1839 4024 fd3e 0ed8 b637 8030 b7bc
00000050: c11d e235 b20f ae3a e4d0 c234 dbbe aabb
00000060: d1ed 24be a899 4036 e84e 16b7 1002 ef39
00000070: e072 9d38 2cb7 6cb9 71f2 9bba 111c 6bbe
00000080: b425 a6bc 266b 76be dfca b9bc 1ade 6ebe
00000090: 52a4 ee3a 429a 52b4 bd4d 8c3a 52c4 7a35
000000a0: f0e7 e9ba 9d28 cb36 a504 cbbd 3d68 043d
000000b0: e5cb e5b9 b539 0e3e 84cf 0c39 c51c 6939
000000c0: df36 0236 3a25 5938 dc93 833a 3e48 2aba
000000d0: b6df 193b 86e0 29bb 7604 efb8 e2ce 88b5
000000e0: 16e6 2037 32e0 6438 7707 a239 d757 81b8
000000f0: 8518 1537 369c 40ba f940 8434 b8bf cbb4
00000100: 58bc cabd 0402 b138 2290 beb9 de39 cd3c
00000110: 8858 89b3 af30 d4b9 6df1 fe34 8660 bbb8
00000120: b027 e8b6 52ed 413c aecc f33a 712e 7f3b
00000130: b782 81ba 75ea 07be 7fef a23c dac8 7bba
00000140: 42b9 c2b8 86bb 6bbd 00d2 da37 80b5 e4bb
00000150: bc08 8538 c703 6dba d91e 3d35 ecf2 19ba
00000160: e48c 25be dbb9 8b36 0ba4 f1b8 b4a7 213b
00000170: 1a0f 8337 0c5e 15b8 d52b 9fb9 b635 8c3e
00000180: c229 1d3f 359f 5bbd b917 993a c3ed cabd
00000190: d000 b03a 80f0 5334 0b78 bf3b aeb9 a3b5
000001a0: dc81 9739 30eb 8cb5 5638 963d 2417 5cbd
000001b0: dff1 76ba 6185 74be 95b2 8aba 97bb 80b9
000001c0: aea7 8a35 4bbf aab8 3088 d5b9 cf92 8539
000001d0: 0b4d 9fb7 2ac0 05bb 1613 b137 c12c 5938
000001e0: 709e 5fb7 6a78 08b8 1c35 b6b8 2fcb 2336
000001f0: cbf1 86b5 f809 243b 65c4 9533 3ea6 8fb5
00000200: 9224 a6be 3cfb d1b7 a7e8 11bb c528 18bc
00000210: d113 d4b4 2a41 73b9 5e73 9834 c236 0d3a
00000220: 269b 1db6 ef5f ccbb 1db8 123a 059c c538
00000230: 1883 90bb 400b 7fbd b3d1 b7bc 1f6a b839
00000240: 5c1f 7137 7a21 bb3e 4440 b439 174a bf3c
00000250: a8ea 75b6 0f43 a2bb 1e87 61b4 3842 d438
00000260: baed 05bd c80f 4837 180b 13b8 6487 15ba
00000270: 1dd5 fd38 ff27 db38 a059 773a cf0c 4f3e
00000280: 7bcf b7bd 45b3 e43e c47b 973d fe31 1ebe
00000290: b454 953c 90de ecb3 ba53 393d daa4 0a36
000002a0: ba56 0739 f8e7 1db7 e813 72bd a2ea ddbd
000002b0: 0c5b e038 dbdc 59be b81f 823a caf4 f3b8
000002c0: d6c4 8536 ac99 a0b9 a597 b7ba 966c 633a
000002d0: 482c 91ba bd31 33bb f09a 8d39 2f5b e6b7
000002e0: 4824 c0b8 cb70 0c38 7880 25b6 66ec 1a37
000002f0: cf79 3337 acdd ad39 0612 acb5 3561 6bb6
00000300: 8464 73be 25fe 9837 2917 983a 8516 f5bb
00000310: e07a 6734 783b af39 3bf8 1fb5 639c 53ba
00000320: 9724 05b7 8c74 0c3a 085b a8bb 0b26 75bb
00000330: e821 383c 370d 09bd b382 ee3a f3a6 65bb
00000340: 2294 b2b8 0daa abbd da86 71b9 1462 8ebb
00000350: 87cd 94b6 3c66 e839 ce28 89b5 4a2c c63b
00000360: a857 14be 1c92 1d34 b86f 07b9 f0ba e839
00000370: af5f 1739 fb01 8638 2b9e 5a3a 981f 13be
00000380: 4fd2 4dbd adc9 a23d 95a4 b5bd ad45 ed3d
00000390: 5949 d5bc 77d7 bb32 95e0 16bd 589f b835
000003a0: b84c 103a 0722 aa37 40ed 253f 196d 84bd
000003b0: 74ec 2fb8 18fd 1a3d 5a32 9d3b b633 ab3a
000003c0: 6ecd 0d36 156a c338 a336 bd3a c6b2 abba
000003d0: 121e e53b d3c3 983b 8dd6 1ab8 d765 dfb7
000003e0: c7b3 1138 1ea1 70b8 7f39 c8b8 37c2 6237
000003f0: 6001 2eb6 e13b 68bb 561f 7636 69a2 de36

model.14.bias f4 [10]
-0.03625991 0.05204535 -0.022702461 -0.008140399 0.01730324 0.03140106 -0.047555756 0.011549136
0.015227912 -0.019675106
00000000: 4585 14bd 812d 553d 83fa b9bc 4f5f 05bc
00000010: 86bf 8d3c 669e 003d d3c9 42bd 9638 3d3c
00000020: 7e7e 793c b02d a1bc
