lib/CNN_Model/mnist_cnn_model.pth (torch, 86607 bytes, 12 tensors)

model.0.weight f4 [3, 1, 3, 3]
0	0xbdbde66a	-0.092724636
1	0xbf301f33	-0.68797606
2	0xbf346932	-0.70473015
3	0x3eadc977	0.33942768
4	0x3cde68ce	0.027149584
5	0x3bf906ee	0.007599703
6	0x3efed33d	0.49770537
7	0x3edbef6a	0.42956096
8	0x3f1eed36	0.62080705
9	0x3e9fe4a6	0.31229132
10	0x3f041c15	0.5160535
11	0x3f09d8ef	0.5384664
12	0xbe9da3af	-0.30788943
13	0x3e0e2d2f	0.13884424
14	0x3ee8acd5	0.4544436
15	0xbf33ba41	-0.70206076
16	0xbf0c0743	-0.5469858
17	0xbe40d67a	-0.18831816
18	0xbebddb8e	-0.3708157
19	0x3de9a5a6	0.11408548
20	0x3f13f7f1	0.57800204
21	0xbe3d6a3a	-0.18497553
22	0x3e912936	0.28351754
23	0x3f20fe2b	0.6288783
24	0x3ebb4e42	0.36583143
25	0x3ee169e5	0.44026104
26	0x3f2ff31f	0.6873035

model.0.bias f4 [3]
0	0xbda6bb91	-0.08141244
1	0x3bdfd3bc	0.0068306606
2	0x3da25130	0.079256415

model.3.weight f4 [9, 3, 3, 3]
0	0xbb8e8ea4	-0.0043505
1	0xbd4db6fe	-0.050223343
2	0xbd6048a6	-0.054756783
3	0xbc3e95d2	-0.0116324
4	0xbcc920e9	-0.024551826
5	0xbdab7ec8	-0.08373791
6	0x3cf5f8aa	0.030025799
7	0x3d2c4395	0.04205664
8	0xbe0761a8	-0.13220847
9	0x3eb8a0e1	0.3606024
10	0x3e7279f6	0.23679337
11	0x3e595026	0.2122198
12	0x3ce3d274	0.027810313
13	0xbd5ccbfe	-0.05390548
14	0xbd750169	-0.059815798
15	0xbcb40b1f	-0.02197796
16	0xbc86a11e	-0.016434249
17	0xbd8c6017	-0.06854265
18	0xbd2d1ffa	-0.042266823
19	0xbd8ff7e2	-0.07029702
20	0xbcdca05f	-0.02693194
21	0xbdc2dabf	-0.09514379
22	0xbdbfa3e8	-0.093574345
23	0xbe118839	-0.14212121
24	0xbc96d0b0	-0.018410057
25	0xbdac86cf	-0.0842415
26	0xbe7f91de	-0.24957988
27	0xbd6f3314	-0.05839832
28	0xbe2a0eb0	-0.16607165
29	0xbe41cb4e	-0.18925211
30	0x3e0686a8	0.13137305
31	0xbe03e94f	-0.12881969
32	0xbe8cb3dc	-0.27480972
33	0xbc9d3066	-0.019188117
34	0xbe1fd484	-0.15608412
35	0xbe3aee91	-0.18255068
36	0x3b79314b	0.0038023766
37	0x3c9ae3a1	0.01890737
38	0x3c52bc43	0.012862268
39	0x3d4488ad	0.047981907
40	0x3d5a20ec	0.053254053
41	0x3dd4a37c	0.10382745
42	0xbe1846cc	-0.14870757
43	0x3d408802	0.047004707
44	0x3dfcbd82	0.12340833
45	0xbe322599	-0.17397155
46	0xbe4a71b4	-0.19769937
47	0x3e782245	0.24231823
48	0xbe740cca	-0.23833004
49	0xbe0a7288	-0.13520253
50	0x3e9162e1	0.2839575
51	0xbdc37a1f	-0.09544777
52	0xbe999bd0	-0.30001688
53	0x3f119e45	0.56882125
54	0xbe8fa1c2	-0.280531
55	0xbe2902b4	-0.16504937
56	0x3ea7fd83	0.32810602
57	0xbe91ee7e	-0.28502268
58	0xbe1519e7	-0.14560662
59	0xbcfe7942	-0.03106368
60	0x3caa5d94	0.020796575
61	0x3ec0271b	0.37529835
62	0x3e8370a6	0.2567188
63	0xbe3d38ac	-0.1847865
64	0xbc502c08	-0.01270581
65	0xbd7f4876	-0.062324964
66	0xbdd1cb4f	-0.10243856
67	0x3eb316cc	0.3497833
68	0x3f00ca1d	0.503084
69	0xbe09ae26	-0.13445339
70	0x3e13d7e8	0.1443783
71	0xbcb54ce8	-0.022131398
72	0xbf10bc0d	-0.5653694
73	0x3da1a55a	0.078928664
74	0x3ed271e0	0.41102505
75	0xbec39f97	-0.38207695
76	0xbd0b425c	-0.033998832
77	0xbd7751c4	-0.060380712
78	0xbe92f7a0	-0.28704548
79	0xbe9bab93	-0.30404338
80	0xbe82d6ef	-0.25554606
81	0x3e4f5c57	0.20250069
82	0x3e01e9d9	0.12686862
83	0x3e1dd201	0.15412141
84	0x3db0c92e	0.08632122
85	0x3e139c1a	0.14415017
86	0xbe8b3d8d	-0.27195397
87	0xbe886cbc	-0.26645458
88	0xbe152727	-0.14565717
89	0xbeb2e232	-0.34938198
90	0xbea4502b	-0.32092413
91	0xbe932b96	-0.2874419
92	0xbec5f92d	-0.3866667
93	0x3e7c527a	0.24640837
94	0xbd18fd18	-0.037350744
95	0xbde6b25b	-0.11264487
96	0x3f1a1dbf	0.6020164
97	0x3eb0e3f0	0.34548903
98	0x3d88918c	0.06668386
99	0xbc845988	-0.016155973
100	0x3d1fe0e0	0.039032817
101	0x3ea9f5f3	0.33195457
102	0xbdd4c35c	-0.10388824
103	0x3e50fe9b	0.20409624
104	0x3e84069f	0.25786301
105	0xbe8349f7	-0.25642368
106	0xbe6f9f99	-0.23400725
107	0xbf0718de	-0.5277232
108	0x3ddf3bfd	0.10900114
109	0x3e89b248	0.2689383
110	0x3d81e260	0.06342006
111	0xbe94b2d0	-0.29042673
112	0x3c93c79c	0.018039517
113	0x3e76197b	0.24033158
114	0xbe9e6144	-0.30933583
115	0xbe8cb323	-0.2748042
116	0x3ea16731	0.3152404
117	0x3e01f22c	0.12690037
118	0xbc6fb6ce	-0.014630986
119	0xbd46453f	-0.048405882
120	0x3ed9e0ac	0.42554224
121	0x3e6e694e	0.23282358
122	0xbe0bc23d	-0.13648315
123	0x3e543081	0.20721628
124	0x3e9fd2d5	0.3121554
125	0xbb9d741c	-0.004805101
126	0x3cc5afac	0.024131618
127	0x3df9e400	0.12201691
128	0xbcb9d776	-0.022685748
129	0xbdf65ef1	-0.120298274
130	0x3d7583a6	0.059940003
131	0xbe06f981	-0.13181116
132	0xbdf83168	-0.121187985
133	0x3e2cc478	0.16871822
134	0x3b3f645e	0.002920411
135	0xbdfc8639	-0.123302884
136	0x3cbfefc6	0.023429763
137	0x3e5ea126	0.21741161
138	0x3edf0297	0.43556663
139	0x3eb2a775	0.34893385
140	0x3ea51ba8	0.32247663
141	0xbdc7deba	-0.097592786
142	0xbe19cb95	-0.15019067
143	0xbb7a1d35	-0.0038164381
144	0xbe1fb315	-0.15595658
145	0xbe26784e	-0.1625683
146	0x3d8b15fa	0.06791301
147	0xbe31c61a	-0.17360726
148	0xbe247e3d	-0.16063781
149	0xbc91c573	-0.017794346
150	0x3e9ab4a5	0.30215946
151	0x3e58c921	0.21170475
152	0x3e4ebed2	0.2018998
153	0xbdf30d89	-0.11867816
154	0xbe672133	-0.22571258
155	0xbe3751f8	-0.17902362
156	0x3e880d69	0.2657273
157	0x3e1641e7	0.14673577
158	0x3dbdf32c	0.09274897
159	0xbdeeb352	-0.116552964
160	0xbe141c62	-0.14463952
161	0x3e090062	0.13379052
162	0xbdd4d991	-0.1039306
163	0xbc8beda6	-0.017081093
164	0xbe6bf76d	-0.23043604
165	0xbe80d438	-0.2516191
166	0xbcc722dc	-0.024308614
167	0xbe0247e1	-0.12722732
168	0xba3a1b76	-0.0007099429
169	0x3cb59c3a	0.022169221
170	0xbe46acc5	-0.19401844
171	0x3de80272	0.113285914
172	0x3d8177de	0.06321691
173	0x3cafd267	0.021462632
174	0xbc9f0258	-0.019410297
175	0x3c6eae90	0.014567986
176	0xbe03ec69	-0.12883152
177	0x3d709186	0.058732532
178	0xbd1b8468	-0.03796807
179	0xbe1632b0	-0.14667773
180	0x3d08e7ee	0.03342431
181	0x3d04bc02	0.03240586
182	0x3e6c5596	0.23079523
183	0xbe2d68c1	-0.16934492
184	0x3edce5f9	0.43144205
185	0x3edbe5fc	0.42948902
186	0x3c905016	0.017616313
187	0x3ec6af46	0.38805598
188	0x3e89e1c2	0.26930052
189	0xbe04e75a	-0.12978879
190	0xbe0b731c	-0.1361813
191	0xbe2ad7a3	-0.16683821
192	0x3e57b8c0	0.2106657
193	0x3e02c8f9	0.12771977
194	0xbe06c5c1	-0.13161375
195	0x3e4b09c4	0.19827944
196	0x3e7edc8f	0.24888824
197	0x3e884071	0.26611665
198	0xbdc4009d	-0.095704295
199	0xbdfd5b0c	-0.123708814
200	0xbd8ff80d	-0.07029734
201	0xbe1eb901	-0.15500261
202	0xbb43de08	-0.002988698
203	0xbc75b1b9	-0.014995986
204	0x3e1765a3	0.14784865
205	0x3d869e45	0.06573156
206	0xbdfda954	-0.123858124
207	0xbecf1f59	-0.40453604
208	0xbe7caa19	-0.24674262
209	0xbe268748	-0.16262543
210	0xbd888ec7	-0.066678576
211	0xbddaadc9	-0.10677678
212	0xbecec6da	-0.40386087
213	0x3e9ce08b	0.30640063
214	0x3e681fb0	0.22668338
215	0xbdc53f4b	-0.09631213
216	0x3e786763	0.24258189
217	0x3df0171d	0.117231585
218	0x3bb60e88	0.0055559315
219	0xbe44756b	-0.19185416
220	0xbe078266	-0.13233337
221	0xbe6d8ec5	-0.23198994
222	0xbdf302c6	-0.11865763
223	0x3e3bd51f	0.18343018
224	0x3e71ccc9	0.23613276
225	0x3cebd229	0.028786736
226	0x3d220e60	0.03956449
227	0x3e4171da	0.18891087
228	0x3ed25fd1	0.41088727
229	0x3e939b73	0.28829536
230	0x3e33ea87	0.17569934
231	0xbda248ad	-0.07924018
232	0xbe1ea95e	-0.15494296
233	0xbe73b199	-0.23798217
234	0xbcb7bf0c	-0.022429965
235	0x3c577b33	0.013151932
236	0x3e1e8c71	0.15483262
237	0xbe8138bf	-0.25238606
238	0xbe50e0aa	-0.20398203
239	0xbe9f48a2	-0.31110102
240	0xbe9c6a53	-0.3054987
241	0xbdce2428	-0.1006549
242	0x3d3eed70	0.046613157

model.3.bias f4 [9]
0	0x3d1a5f8b	0.037688773
1	0x3eb5aa0e	0.35481304
2	0xbb77c834	-0.003780854
3	0x3c73594c	0.014852833
4	0xbe8498c9	-0.25897816
5	0xbede9def	-0.4347987
6	0xbd81f8e8	-0.06346303
7	0x3d00770e	0.03136354
8	0x3dc94b7c	0.098288506

model.6.weight f4 [9, 9, 3, 3]
0	0x3d386f7a	0.045028187
1	0x3c3ef140	0.011654198
2	0x3d791fce	0.060821347
3	0xbd31efe1	-0.043441657
4	0x3e91ccb0	0.28476477
5	0x3db9b4b2	0.09067668
6	0x3dbe9d9d	0.09307406
7	0xbc1ef6ce	-0.0097023975
8	0xbe5d4863	-0.21609645
9	0x3e005fe2	0.12536576
10	0xbc92ca4f	-0.017918734
11	0xbd4c1585	-0.04982521
12	0xbe8d9b39	-0.27657488
13	0xbedd14ed	-0.43180028
14	0xbe9134e2	-0.2836066
15	0x3d9cea22	0.07661845
16	0xbe2cd8e8	-0.16879618
17	0xbe8f0833	-0.27935943
18	0xbe9e8b44	-0.30965626
19	0x3dca62f2	0.098821536
20	0x3f6af6b2	0.9178268
21	0xbedcb34d	-0.43105546
22	0xbd920742	-0.071302906
23	0x3dc3b28a	0.09555538
24	0xbdbb3efe	-0.09142874
25	0xbdeb7449	-0.11496789
26	0x3e2ecac1	0.17069532
27	0x3e22112a	0.1582686
28	0x3ed27fc2	0.41113096
29	0x3f1b256e	0.6060399
30	0xbe78f760	-0.24313116
31	0x3e51d97b	0.20493118
32	0x3e65348d	0.22383328
33	0xbde3eb64	-0.111288816
34	0xbd59a16a	-0.053132452
35	0x3e60fd3f	0.21971606
36	0xbecae97d	-0.39631262
37	0xbe537ad5	-0.20652325
38	0xbe52f522	-0.20601323
39	0xbe402121	-0.18762638
40	0xbe4e1883	-0.20126538
41	0x3df3a1f3	0.11896124
42	0x3f0e7ca6	0.5565895
43	0x3e98fb48	0.29879212
44	0xbe088a3e	-0.13333985
45	0x3d4f0f4f	0.05055171
46	0xbe5a0ecb	-0.21294706
47	0x3d487a8f	0.048945006
48	0xbd27b700	-0.040946007
49	0x3ea1dcc7	0.31613752
50	0x3ec1dd53	0.3786417
51	0x3da3649e	0.079781756
52	0x3e22a556	0.15883383
53	0x3b5e95c2	0.0033963774
54	0x3e414f98	0.18878019
55	0xbd2be87a	-0.041969754
56	0xbc3f8690	-0.011689797
57	0xbdc2d80b	-0.09513863
58	0xbe7c321f	-0.24628495
59	0xbe868edf	-0.26280877
60	0xbe1e3390	-0.15449357
61	0xbcd04d7b	-0.02542757
62	0x3e7cfeff	0.24706648
63	0xbe1d62d2	-0.15369728
64	0x3d698933	0.05701561
65	0x3edbb11e	0.42908567
66	0xbe6d8757	-0.2319616
67	0x3eabb820	0.33538914
68	0x3ea8d903	0.32978067
69	0xbddf89e8	-0.109149754
70	0xbd877b77	-0.06615346
71	0xbdc2e8e1	-0.095170744
72	0xbdf68e21	-0.12038828
73	0x3eaf1420	0.34195042
74	0x3ea770ad	0.32703152
75	0xbe8707dd	-0.26373187
76	0xbb99c790	-0.004692979
77	0x3e0e0016	0.1386722
78	0xbe350ef5	-0.17681487
79	0xbc8eee5a	-0.01744764
80	0x3e05254d	0.1300251
81	0xb50c19b1	-5.219145e-07
82	0xb59a985b	-1.1518235e-06
83	0xb55553f0	-7.947083e-07
84	0xb4eed402	-4.448521e-07
85	0xb44073b6	-1.7923489e-07
86	0xb544f4de	-7.337202e-07
87	0x34429da4	1.8125007e-07
88	0x343bcebb	1.749094e-07
89	0x33187719	3.5498577e-08
90	0xb525c018	-6.1746823e-07
91	0xb4b5544a	-3.3775206e-07
92	0x3356348f	4.987356e-08
93	0xb4caac34	-3.7750726e-07
94	0xb4e54d12	-4.271065e-07
95	0xb5031cc1	-4.8843145e-07
96	0xb545bee8	-7.3666024e-07
97	0xb4de88d8	-4.145029e-07
98	0xb4ee092a	-4.4337622e-07
99	0xb4d46b9b	-3.956637e-07
100	0xb50a2a49	-5.147054e-07
101	0x323ddfe6	1.10521565e-08
102	0xb3c8ef75	-9.356783e-08
103	0x349d773e	2.933029e-07
104	0xb52c7190	-6.424025e-07
105	0xb3ba9f7e	-8.6903114e-08
106	0x346d5211	2.21022e-07
107	0x334c4a30	4.7564924e-08
108	0x35984f2a	1.1347922e-06
109	0xb5c04d37	-1.4327587e-06
110	0x34a67a32	3.1008818e-07
111	0x3431f2c0	1.6572722e-07
112	0x3536754b	6.797097e-07
113	0x3216e0b6	8.7822425e-09
114	0x351523fd	5.5559195e-07
115	0xb41ca4e0	-1.4588613e-07
116	0xb40baf93	-1.3009257e-07
117	0xb4bcf551	-3.519622e-07
118	0x35315c1e	6.6071686e-07
119	0x33263613	3.8699067e-08
120	0x339514bb	6.942124e-08
121	0x35450eb1	7.34096e-07
122	0xb3d86b41	-1.0077793e-07
123	0xb3825528	-6.0690866e-08
124	0xb4e8c169	-4.3354092e-07
125	0xb2f16f10	-2.8106598e-08
126	0xb606224a	-1.9987515e-06
127	0xb3f914b4	-1.1598732e-07
128	0x359eecf7	1.1840883e-06
129	0xb68c1385	-4.1745975e-06
130	0xb65a8033	-3.2559153e-06
131	0xb5dda9e2	-1.6515226e-06
132	0xb6510fb1	-3.115256e-06
133	0xb55e6c31	-8.2858884e-07
134	0x337d2178	5.8936592e-08
135	0xb6e0f673	-6.7044107e-06
136	0xb71ca7d0	-9.3373965e-06
137	0xb66679a9	-3.4343486e-06
138	0xb76abce6	-1.3991468e-05
139	0xb72de625	-1.0365188e-05
140	0xb6ad50f4	-5.165226e-06
141	0xb6b6b1b1	-5.4447087e-06
142	0xb6b697ac	-5.4416796e-06
143	0xb69d1468	-4.68134e-06
144	0xb56efa2f	-8.9025974e-07
145	0x3585bf0f	9.964878e-07
146	0x34b12b5f	3.3000376e-07
147	0x35e902e1	1.7360691e-06
148	0x34d4a118	3.9605288e-07
149	0xb3893fe0	-6.3911784e-08
150	0xb58fb45c	-1.0706822e-06
151	0xb5631ea4	-8.460868e-07
152	0xb54b7a11	-7.5801023e-07
153	0x3556d151	8.002581e-07
154	0x3523d615	6.103376e-07
155	0x34c08ec6	3.5866668e-07
156	0x34511a3a	1.9474183e-07
157	0xb4a83cd3	-3.1336694e-07
158	0x342ccead	1.6093936e-07
159	0xb3b3c839	-8.371757e-08
160	0xb33389e2	-4.180209e-08
161	0xb3a15b4e	-7.513755e-08
162	0xad8c5299	-1.5952838e-11
163	0x2f7e73ba	2.314228e-10
164	0x2d1e5788	9.000696e-12
165	0xae73bec6	-5.5421244e-11
166	0xaff8b1b0	-4.5237192e-10
167	0xb00127c4	-4.6986437e-10
168	0x2c898b28	3.9092236e-12
169	0x2f464c86	1.8035182e-10
170	0x2f95020d	2.71044e-10
171	0x2f2990e5	1.5421937e-10
172	0xb131e2e0	-2.5885853e-09
173	0x31368834	2.6561908e-09
174	0xb388b656	-6.36616e-08
175	0xb15b3824	-3.1900607e-09
176	0x310e2333	2.0683728e-09
177	0xb318727b	-3.5494377e-08
178	0xb158acfc	-3.1530467e-09
179	0x3080c528	9.369261e-10
180	0xac4fb6bc	-2.9517907e-12
181	0xae3270ca	-4.057269e-11
182	0x2e1e825d	3.6040827e-11
183	0x2eb21f91	8.10011e-11
184	0x2e003deb	2.9158825e-11
185	0xae2e1a16	-3.958619e-11
186	0xae0b0720	-3.161127e-11
187	0x2fa468c1	2.9905858e-10
188	0x3040423f	6.9943334e-10
189	0x2ed18976	9.5286376e-11
190	0x2f2cd134	1.5717633e-10
191	0x2f15c765	1.362231e-10
192	0x2f27a0e3	1.524572e-10
193	0xaea8f716	-7.683647e-11
194	0xaec4cce0	-8.949441e-11
195	0xaff7fdf5	-4.5109486e-10
196	0xb31ba83e	-3.6241765e-08
197	0xb08a551f	-1.0065014e-09
198	0xaf4a5644	-1.840244e-10
199	0xafd894fd	-3.9396034e-10
200	0xaeccf5a3	-9.32048e-11
201	0xaf87f092	-2.4727292e-10
202	0xb65ca2b4	-3.287726e-06
203	0xb4acc460	-3.2180378e-07
204	0x310eb217	2.0764952e-09
205	0xb60701a9	-2.0117534e-06
206	0xb340348e	-4.4751282e-08
207	0xb501509d	-4.817355e-07
208	0xb6089329	-2.0351238e-06
209	0xb1b8ccd7	-5.3783924e-09
210	0x33033155	3.054568e-08
211	0x368314fd	3.9065476e-06
212	0xb44099dc	-1.7937367e-07
213	0xb80bd14b	-3.33351e-05
214	0xb8a0fae9	-7.67613e-05
215	0xb54ec029	-7.702061e-07
216	0xb6b1f652	-5.3036865e-06
217	0xb80e9d9a	-3.4002216e-05
218	0xb4bb2d80	-3.486457e-07
219	0xb91a4a71	-0.00014714316
220	0xb9c621d0	-0.00037790695
221	0xb7850db3	-1.5861215e-05
222	0xb92f4dda	-0.00016718303
223	0xb9a639dc	-0.00031705096
224	0xb5cbb6fc	-1.5177934e-06
225	0xaf2a472d	-1.5486697e-10
226	0xafae5963	-3.171393e-10
227	0xb0f15cba	-1.7561412e-09
228	0x2d9465fe	1.6870946e-11
229	0x2eab20a2	7.7819765e-11
230	0x2e5be8bb	5.000154e-11
231	0x2e4f155d	4.7085325e-11
232	0xafe15e9f	-4.0994494e-10
233	0x30320faa	6.477828e-10
234	0x2e2c30a8	3.9151488e-11
235	0x2fa247a7	2.951854e-10
236	0x2fd9f273	3.964434e-10
237	0xadbe502c	-2.1636103e-11
238	0x2ef0b4a8	1.09460274e-10
239	0x2fca7aab	3.6830747e-10
240	0xae19feef	-3.50146e-11
241	0xb063c6f2	-8.2864837e-10
242	0xb06857d4	-8.452592e-10
243	0x8d396bad	-5.7137136e-31
244	0x8d6d375c	-7.30979e-31
245	0x0e1c99c9	1.930253e-30
246	0x0bd934d8	8.366487e-32
247	0x0c730eff	1.8724552e-31
248	0x8bc64fa3	-7.638665e-32
249	0x8d350cf2	-5.5790514e-31
250	0x0e4f0f2e	2.5522029e-30
251	0x8e280f24	-2.0714889e-30
252	0x133de276	2.3966808e-27
253	0x15e2ce8c	9.1606547e-26
254	0x133ad89c	2.3583297e-27
255	0x1515b9d6	3.023691e-26

model.6.bias f4 [9]
0	0xbea2bff4	-0.31787074
1	0x35536615	7.8752174e-07
2	0x32032700	7.634071e-09
3	0x0eecbf5a	5.8362757e-30
4	0xb253d0f0	-1.2329323e-08
5	0xaaa0f1f7	-2.8589606e-13
6	0xbcb8a077	-0.022537453
7	0xbcbeec43	-0.023306018
8	0x2e15d16d	3.4064685e-11

model.10.weight f4 [128, 81]
0	0x38512dd5	4.9872167e-05
1	0xb987eba8	-0.00025924784
2	0x380d7bca	3.3732307e-05
3	0x3828f8e4	4.028612e-05
4	0xb78d9648	-1.687849e-05
5	0x39443d6b	0.00018714897
6	0xb8b6ba33	-8.7131186e-05
7	0xb8c5d19a	-9.432733e-05
8	0x39489bc4	0.00019131514
9	0xba67224e	-0.00088170625
10	0x2ddfe5ec	2.545427e-11
11	0x384668d0	4.7304493e-05
12	0xb8b0a9b8	-8.4239466e-05
13	0xba4e9f34	-0.00078819995
14	0x331e1d38	3.6813816e-08
15	0x326f65d7	1.3934787e-08
16	0x2ffab851	4.56057e-10
17	0x35f28784	1.8069845e-06
18	0xaa362999	-1.617928e-13
19	0x2ba79ca8	1.1909545e-12
20	0x2bd6c830	1.5261178e-12
21	0x2a78e87b	2.2107483e-13
22	0x2b7b0142	8.917486e-13
23	0xabe9b520	-1.6605918e-12
24	0x2ac3ae44	3.475988e-13
25	0xaae7b268	-4.1157637e-13
26	0xac0a376f	-1.9641751e-12
27	0x0bcb73a8	7.8366776e-32
28	0x8b70ffe0	-4.6414818e-32
29	0x0c30d6b4	1.3623157e-31
30	0x8c38d878	-1.4239986e-31
31	0x8ccce2e2	-3.1567727e-31
32	0x8b4c51f8	-3.9350637e-32
33	0x0c82b9bc	2.0141456e-31
34	0x0cdea3a8	3.4303013e-31
35	0x89f6d540	-5.9422885e-33
36	0x38777f0f	5.900772e-05
37	0x9e58b4b7	-1.1472316e-20
38	0x3890f5a9	6.912213e-05
39	0x2c043730	1.8788963e-12
40	0xaead2564	-7.873771e-11
41	0xb818e604	-3.6453843e-05
42	0xb9ff590a	-0.0004870373
43	0x34ec4fbe	4.4016446e-07
44	0xb093a0e3	-1.0741384e-09
45	0x19eb4f9b	2.4330583e-23
46	0x9a0c6c65	-2.9038882e-23
47	0x9eebf274	-2.4981869e-20
48	0x1a127f33	3.0294843e-23
49	0x999a286c	-1.5939553e-23
50	0x3a912deb	0.0011076307
51	0xb82fd69e	-4.192313e-05
52	0xa5e28830	-3.9297035e-16
53	0x1a302644	3.6426858e-23
54	0xb90e5604	-0.00013574219
55	0x387d1740	6.0341554e-05
56	0xb827260c	-3.9851337e-05
57	0xba00ff94	-0.00049208966
58	0xba050694	-0.00050745276
59	0xb74b7be4	-1.2128588e-05
60	0x39afe664	0.00033550255
61	0xb9b9c4e2	-0.0003543264
62	0xb9085738	-0.00013002462
63	0xac217d08	-2.2948882e-12
64	0x86965e60	-5.65624e-35
65	0xae18c354	-3.4734285e-11
66	0x0648a65c	3.773804e-35
67	0x06523822	3.953785e-35
68	0x2e37869a	4.1728933e-11
69	0x076dc6e1	1.7888344e-34
70	0xa8c5f5a5	-2.1977925e-14
71	0x2d549d9e	1.2085803e-11
72	0xb2e3618c	-2.6470637e-08
73	0xb4cfafa0	-3.868454e-07
74	0xb7fc18ad	-3.0052232e-05
75	0x3a764d78	0.0009395699
76	0xae7d6572	-5.761564e-11
77	0xb983f68b	-0.00025169956
78	0xb2753bc0	-1.42744625e-08
79	0x399188a0	0.0002775835
80	0x2da19299	1.8368683e-11
81	0x390281be	0.00012446099
82	0xba3ea874	-0.0007273026
83	0xb8c8749e	-9.558465e-05
84	0xb852f2a4	-5.029388e-05
85	0xb92c578e	-0.00016435815
86	0x3825ecb6	3.955952e-05
87	0xb9113d7f	-0.00013851187
88	0xb838b86b	-4.404077e-05
89	0x385d2355	5.272341e-05
90	0x31b04935	5.130597e-09
91	0x2634e69e	6.276259e-16
92	0x2ee7f97a	1.054898e-10
93	0xb312cf3a	-3.4181745e-08
94	0xad21ca52	-9.196715e-12
95	0x3602edcc	1.9509926e-06
96	0xb19a5e5b	-4.492717e-09
97	0x29c16648	8.588665e-14
98	0x3755e2d8	1.27486055e-05
99	0x8000130b	-6.831e-42
100	0x80036a82	-3.13714e-40
101	0x00000f75	5.545e-42
102	0x8000d8b1	-7.7734e-41
103	0x0000a204	5.812e-41
104	0x39c07fef	0.00036716412
105	0x00056bb1	4.9781e-40
106	0x8007dc59	-7.21894e-40
107	0x23a44200	1.7808868e-17
108	0xb658a783	-3.2284013e-06
109	0xaca7f512	-4.7736337e-12
110	0xaf2866c0	-1.5316015e-10
111	0xb8320f7f	-4.245294e-05
112	0xb50981f8	-5.1225607e-07
113	0x32a4ab23	1.9169937e-08
114	0xacbe3590	-5.4060714e-12
115	0x254ffa66	1.8039226e-16
116	0xba0b01f0	-0.0005302718
117	0x31b95653	5.3940226e-09
118	0xb10c59a4	-2.0423636e-09
119	0x392702a6	0.00015927348
120	0x2f4fa5ba	1.8885418e-10
121	0x382bc59c	4.0953615e-05
122	0xb823ae81	-3.9024748e-05
123	0x3937c118	0.00017524173
124	0xb1d08628	-6.0688485e-09
125	0xb82f0e18	-4.1736377e-05
126	0x9b129c9f	-1.2127444e-22
127	0x9c8e24ca	-9.406282e-22
128	0x9c669900	-7.6298364e-22
129	0x1b1a40da	1.2759536e-22
130	0x1c80297a	8.481051e-22
131	0x1c0107c4	4.2692556e-22
132	0x1c4e58fe	6.82747e-22
133	0x9c98a0f6	-1.0100124e-21
134	0x9c83115e	-8.673342e-22
135	0xb78e036d	-1.6929314e-05
136	0x3713bff0	8.806572e-06
137	0x369afce9	4.6190003e-06
138	0x388fe9c1	6.8623114e-05
139	0xb9f9abb9	-0.00047620924
140	0x37b9aa92	2.2133147e-05
141	0x38263c4e	3.9633647e-05
142	0xb8dcba9d	-0.00010525177
143	0x3810ed58	3.455332e-05
144	0xadd4614a	-2.4144815e-11
145	0xae3986d8	-4.2183895e-11
146	0xaeefdea1	-1.09080085e-10
147	0xad6f6669	-1.3608317e-11
148	0xae019878	-2.9466624e-11
149	0xade34f2f	-2.5842077e-11
150	0x2bcd8690	1.4603475e-12
151	0x2c6d13b8	3.3690672e-12
152	0x2daaf35a	1.9434832e-11
153	0x0b0ce44a	2.7134765e-32
154	0x8b97644f	-5.831401e-32
155	0x86fc1000	-9.4815374e-35
156	0x8b44d9c8	-3.7912067e-32
157	0x0ae5f8cc	2.2145485e-32
158	0x0b2351d4	3.145422e-32
159	0x0b6ffe21	4.622091e-32
160	0x8aae38e0	-1.6776985e-32
161	0x8b4113c8	-3.718533e-32
162	0xafad85c4	-3.1563563e-10
163	0xb4b2fcae	-3.3338932e-07
164	0x314e8d44	3.0057246e-09
165	0xb710ec8d	-8.638145e-06
166	0xb88639da	-6.4003936e-05
167	0xb89a353a	-7.3532065e-05
168	0xb858c267	-5.1679464e-05
169	0xb8552636	-5.0818744e-05
170	0xb153548d	-3.0752603e-09
171	0x3804a46a	3.1624375e-05
172	0x2eebbf05	1.07204946e-10
173	0x32adaad7	2.021754e-08
174	0xb5742d68	-9.096316e-07
175	0x90c53e3d	-7.779869e-29
176	0xb9fb8270	-0.00047971634
177	0x28db3ce2	2.4340288e-14
178	0xa9b4c1ee	-8.027247e-14
179	0xb00c3238	-5.100307e-10
180	0x398a4c4c	0.00026378257
181	0xaf107fb2	-1.314209e-10
182	0xac6371fa	-3.232191e-12
183	0xb596a4fa	-1.1223885e-06
184	0xb67bbbd0	-3.7511236e-06
185	0x3a634e2a	0.000867101
186	0x35dd51fc	1.6489644e-06
187	0xb82c1bd2	-4.1033905e-05
188	0xb787a796	-1.6171292e-05
189	0x27595870	3.0162742e-15
190	0x3a651088	0.000873812
191	0x07bf8804	2.8818429e-34
192	0x39a9bbc0	0.00032374077
193	0x3199b9ea	4.474022e-09
194	0x06342348	3.3880158e-35
195	0xb27f6c5a	-1.486759e-08
196	0x3a61cd68	0.0008613677
197	0xadc6d750	-2.2605612e-11
198	0xa05843a3	-1.8318291e-19
199	0x36c6aea0	5.921189e-06
200	0xb1c7e618	-5.817821e-09
201	0x320ec020	8.309172e-09
202	0x0000e1c1	8.0985e-41
203	0x00033590	2.94721e-40
204	0x35cf56af	1.544793e-06
205	0x0003e7e1	3.58689e-40
206	0x29edd438	1.05617284e-13
207	0x2fad1e32	3.1489972e-10
208	0x2c89742b	3.9066714e-12
209	0xb8a68018	-7.939356e-05
210	0x15dcef1a	8.923453e-26
211	0x34519b48	1.9521133e-07
212	0xb6b27436	-5.318342e-06
213	0x950591dc	-2.69742e-26
214	0xb6a1895a	-4.8141637e-06
215	0xb0b9a0d2	-1.350623e-09
216	0x3049edd0	7.3461326e-10
217	0xaf9814ea	-2.76635e-10
218	0xafdd117c	-4.021209e-10
219	0xb4ae765c	-3.2496143e-07
220	0xb19d73b8	-4.582457e-09
221	0x31150667	2.1685993e-09
222	0x2dacd1b0	1.9647256e-11
223	0xb835935e	-4.329101e-05
224	0xb53c8c28	-7.023941e-07
225	0x3af81c1f	0.0018929279
226	0x32207c06	9.341425e-09
227	0x24a40f98	7.115008e-17
228	0x93bd857f	-4.7841945e-27
229	0x800348b3	-3.01586e-40
230	0x2802ec10	7.2676376e-15
231	0x98f0436d	-6.210663e-24
232	0x0000c94c	7.2212e-41
233	0xb373a967	-5.6731917e-08
234	0x3568d5f8	8.67381e-07
235	0x34cf0483	3.8560037e-07
236	0xb71ec25a	-9.462785e-06
237	0x388fb6b8	6.8528054e-05
238	0x3983103c	0.00024998363
239	0xbad87530	-0.0016514417
240	0xb688c3c4	-4.075906e-06
241	0x38735f64	5.8024554e-05
242	0xb94b852a	-0.00019409196
243	0xb946f637	-0.00018974474
244	0xbad17e93	-0.0015983157
245	0xba276dad	-0.00063868874
246	0xb9eb5883	-0.0004488864
247	0xbac31883	-0.0014884624
248	0xba60ce2d	-0.00085756445
249	0xbabdfb25	-0.0014494403
250	0xbab4e980	-0.0013802499
251	0xb9ec4be8	-0.00045069982
252	0xb6a66b62	-4.9596865e-06
253	0xb4142a9f	-1.379908e-07
254	0xb07337f8	-8.848242e-10
255	0xafc54a18	-3.5886738e-10

model.10.bias f4 [128]
0	0x38931e2c	7.015126e-05
1	0xb7e07fa6	-2.6762322e-05
2	0x2eabf186	7.819083e-11
3	0xb8e1fa2e	-0.00010775436
4	0x3c851bb8	0.016248569
5	0x3c8e64da	0.017382074
6	0x3c49b6ac	0.012311619
7	0xbca0dd0e	-0.019636657
8	0xb553f356	-7.8957726e-07
9	0x3b72be32	0.0037039635
10	0x353c7cf5	7.0217294e-07
11	0x3c0eaf9b	0.00870886
12	0x33ca3b86	9.417185e-08
13	0x3bd642cf	0.006538726
14	0xbaca3cba	-0.0015429475
15	0x3ba3eb29	0.0050023985
16	0x2d53a257	1.2030008e-11
17	0x3be34016	0.00693513
18	0x3011e915	5.308192e-10
19	0x3ce3c60c	0.027804397
20	0xafba0312	-3.3835384e-10
21	0x347d9c82	2.3619398e-07
22	0xbbf52d69	-0.00748222
23	0xb4856b6f	-2.485135e-07
24	0x3c189bed	0.009314519
25	0x3d321b34	0.043482974
26	0xbd4e1959	-0.050317142
27	0x3c92561f	0.017863331
28	0x3b15feb4	0.002288741
29	0x3087968a	9.865329e-10
30	0xb94e9bd7	-0.00019703746
31	0x33698a83	5.4375516e-08
32	0x36e96a35	6.9563052e-06
33	0x36cc1d0b	6.083055e-06
34	0xbd46aa42	-0.048502214
35	0x3b00cd9c	0.0019653803
36	0x2d32ce6f	1.0163966e-11
37	0xbdbb8cc9	-0.09157712
38	0x39c0ac20	0.00036749337
39	0x3d49a534	0.049229816
40	0xb6896049	-4.0941272e-06
41	0x3737c27c	1.0952932e-05
42	0x3a9c23d8	0.0011912538
43	0xbcddd8ac	-0.027080856
44	0x3ce79e01	0.028273584
45	0xbd737976	-0.059442006
46	0xbc9f22e6	-0.01942582
47	0xbd3ed8b9	-0.0465934
48	0x2de47650	2.597314e-11
49	0x2ef05a6d	1.0929999e-10
50	0xab029051	-4.6385557e-13
51	0xbd09f5d5	-0.03368171
52	0xbc4e7967	-0.012602187
53	0xbd08ebfe	-0.033428185
54	0x3acba991	0.0015538206
55	0xbd0ec72a	-0.034857906
56	0xb4aa9306	-3.177194e-07
57	0x3c8c704c	0.017143391
58	0x2b809516	9.136327e-13
59	0xbc807998	-0.01568298
60	0x3c8c1a9a	0.017102528
61	0x3d5a8015	0.053344805
62	0x3d365976	0.04451891
63	0x3c4115e0	0.011785001
64	0xaf5a94dd	-1.9879871e-10
65	0x347b14e3	2.3383795e-07
66	0xb35e531f	-5.1764e-08
67	0xbc5da4fa	-0.013528103
68	0xbc9f8e7c	-0.019477122
69	0x32daf831	2.5491405e-08
70	0x35c45237	1.4627066e-06
71	0x3c235784	0.009969596
72	0x3b70a43c	0.0036718985
73	0xbcdb6d28	-0.026785448
74	0xbd0bc5ce	-0.034124188
75	0x3d0f4e3a	0.034986712
76	0xbc15dd66	-0.009147024
77	0x38f5f3e9	0.00011727942
78	0xa8bd2ffb	-2.1004023e-14
79	0x3b42e6d6	0.002973964
80	0x3cb52e40	0.02211678
81	0xac3dff95	-2.7000392e-12
82	0xbd442e4a	-0.047895707
83	0x3c80649c	0.015672974
84	0x380e80bb	3.3975328e-05
85	0x36bed632	5.687377e-06
86	0xb995c25c	-0.00028564304
87	0x3c02eab7	0.007990531
88	0xbbc8fbf4	-0.006133551
89	0x35724978	9.0258936e-07
90	0x3b925d2a	0.0044666724
91	0x2ed0a3ff	9.4878765e-11
92	0xbd2dede0	-0.042463183
93	0xb8f121e8	-0.00011498091
94	0xb53d775e	-7.058169e-07
95	0x3c0e04e8	0.008668162
96	0x3c5b1448	0.013371535
97	0x352580c6	6.165468e-07
98	0x3c0460aa	0.008079687
99	0x3c9daa07	0.019246114
100	0xbad90ccb	-0.0016559599
101	0xba072c50	-0.00051564444
102	0xbd0ed41f	-0.034870263
103	0xb98f334a	-0.000273133
104	0x36ac9e0b	5.144398e-06
105	0x338fbe5a	6.693581e-08
106	0xba8dacb6	-0.0010808918
107	0xbc3af726	-0.011411464
108	0x375fbb11	1.3335391e-05
109	0xbd3f512b	-0.046708267
110	0xbc9c6129	-0.019089298
111	0xbc603194	-0.013683695
112	0xb5259ddc	-6.1697006e-07
113	0x3c351b62	0.011053892
114	0xb8aae0f4	-8.1481325e-05
115	0xbc6223b0	-0.013802454
116	0xbb9685d7	-0.0045935917
117	0x298fecc9	6.3915514e-14
118	0xbc937a3a	-0.018002618
119	0xbc3fd682	-0.0117088575
120	0xb8acf1f1	-8.246664e-05
121	0xbc82074b	-0.015872618
122	0x3b9573ed	0.0045609386
123	0xbbeed8be	-0.0072890213
124	0xb99c460b	-0.00029806825
125	0xbd05d50d	-0.032673884
126	0xb8d73f67	-0.000102638085
127	0x348bbf5f	2.6030008e-07

model.13.weight f4 [64, 128]
0	0xb700b8c8	-7.672417e-06
1	0x381f76df	3.801926e-05
2	0x2e3a7002	4.2390987e-11
3	0x37f9bb71	2.9770397e-05
4	0x3c84240e	0.016130473
5	0x3d9d3a50	0.07677138
6	0xbdbbf97a	-0.09178443
7	0x3d984776	0.07435505
8	0xb7698286	-1.3918272e-05
9	0x3def38b4	0.11680737
10	0xb5fb678e	-1.8731096e-06
11	0xbd2bd3ae	-0.04194992
12	0xb58578f6	-9.944476e-07
13	0xbd73a948	-0.05948761
14	0xbc9e9d40	-0.019362092
15	0x3e3e3e67	0.18578492
16	0x268fc492	9.975899e-16
17	0x3e1043f5	0.14088424
18	0x1ba48daa	2.7223072e-22
19	0xbc0f4892	-0.008745329
20	0xaf7fe2c5	-2.327268e-10
21	0x36e73563	6.8905515e-06
22	0xbd8110c2	-0.063020244
23	0x31dcd4d0	6.4270367e-09
24	0xbc94c77b	-0.018161526
25	0xbbadab4e	-0.005299962
26	0x3df25296	0.11832158
27	0xbd1a4b21	-0.037669305
28	0x3e171fc8	0.14758217
29	0x2ec21f6d	8.827681e-11
30	0xb89efbaf	-7.580907e-05
31	0x34809045	2.3946828e-07
32	0xb5bda380	-1.4129182e-06
33	0xb60aebdb	-2.0700888e-06
34	0x3c7b27fa	0.015329355
35	0xbc6f98b8	-0.014623813
36	0x26314711	6.1505524e-16
37	0xbda9c36e	-0.082892284
38	0xb9ad4f76	-0.00033056334
39	0x3dc445ca	0.09583624
40	0xb604d816	-1.9795311e-06
41	0x3a056606	0.000508875
42	0xbc9f31f5	-0.019433001
43	0xbcae3dba	-0.021269668
44	0x3e297dc7	0.16551886
45	0x3d4cc95d	0.049996722
46	0x3d79e17a	0.061006047
47	0xbdb833c0	-0.089942455
48	0x321fff0e	9.313011e-09
49	0x2daa3495	1.9350114e-11
50	0x2c00b9ce	1.8293036e-12
51	0x3df1aa3c	0.11800048
52	0x3b8a0fb6	0.0042132987
53	0xbcc8ae69	-0.024497228
54	0xbd252b79	-0.040324662
55	0x3daf964e	0.0857359
56	0xb4864554	-2.5009888e-07
57	0xbcd6051f	-0.026125489
58	0xb319eae5	-3.5836724e-08
59	0xbcba3413	-0.022729909
60	0xbc234c04	-0.009966854
61	0xbcc00215	-0.023438493
62	0x3e1dc3ab	0.15406673
63	0xbcefca30	-0.029271215
64	0x3580f615	9.608362e-07
65	0x350075a7	4.785492e-07
66	0xb2e84db4	-2.704369e-08
67	0x3bf13e56	0.0073621674
68	0x3c0a3236	0.008434823
69	0x320bb206	8.131343e-09
70	0x35cdc82c	1.5331948e-06
71	0x3b528363	0.003212177
72	0xbd80a940	-0.06282282
73	0x3e166b7a	0.14689437
74	0xbd243ec8	-0.040098935
75	0x3da2e7ba	0.079543546
76	0xbd1dd3cb	-0.03853206
77	0x390bdd2a	0.00013338463
78	0xa97e3c79	-5.645178e-14
79	0xbcec1a2d	-0.028821075
80	0xbcda8a65	-0.02667732
81	0x2f8e9144	2.5932867e-10
82	0xbd52e8a1	-0.051491383
83	0xbdcc2c8e	-0.09969436
84	0x378b22b1	1.6586246e-05
85	0x36629d64	3.3768238e-06
86	0x3a59e6b2	0.00083122693
87	0xbd3558f1	-0.044274274
88	0xbd8b091b	-0.06788846
89	0x38cdd350	9.814522e-05
90	0xbd0e266a	-0.034704603
91	0x2c1b46fa	2.2066225e-12
92	0xbdc10479	-0.09424681
93	0xb9d09968	-0.00039787148
94	0xb63cb93d	-2.8122006e-06
95	0xbd656cc2	-0.056011923
96	0xbe019125	-0.12653024
97	0xb72306e8	-9.717165e-06
98	0xbd61879b	-0.055060964
99	0x3cd653af	0.02616295
100	0x3a1580a8	0.000570307
101	0xba247e94	-0.0006274965
102	0xbdd16356	-0.10224025
103	0xb8a295fb	-7.752698e-05
104	0x37017342	7.715835e-06
105	0xb3d0c6f6	-9.7219456e-08
106	0xbadadad2	-0.0016697294
107	0xbd51294d	-0.051064778
108	0x39920ab2	0.0002785526
109	0x3d86df3c	0.06585547
110	0xbd5e808e	-0.054321818
111	0x3e3705c7	0.17873298
112	0x341766e9	1.410041e-07
113	0xbd9a8454	-0.07544771
114	0xb9c29fcf	-0.0003712163
115	0xbd8755cd	-0.06608162
116	0xbcc28c1d	-0.023748452
117	0x29653a48	5.0898765e-14
118	0xbc949cb9	-0.018141137
119	0x3d029b3c	0.031886324
120	0xb6d2585e	-6.268775e-06
121	0xbd74d7b3	-0.05977602
122	0x3e1e1510	0.15437722
123	0x3dcc1e1a	0.09966679
124	0xb9bf70de	-0.00036514451
125	0x3d3abb9e	0.045589082
126	0x39b35ee7	0.00034212248
127	0xb590d72b	-1.0791458e-06
128	0x3756c9df	1.2802396e-05
129	0x3840decf	4.5983874e-05
130	0xaf700479	-2.1829462e-10
131	0x3801f2d4	3.0982148e-05
132	0x3d4eb380	0.050464153
133	0x3caf1edb	0.021377018
134	0xbb0e016c	-0.0021668328
135	0xbcb28f85	-0.021796951
136	0xb77d97fc	-1.5115362e-05
137	0xbda42828	-0.08015472
138	0xb7193718	-9.132338e-06
139	0xbcbcafbc	-0.023033015
140	0x3294356f	1.7253766e-08
141	0x3d4419e6	0.04787626
142	0xbd3f6629	-0.046728287
143	0xbd48aa33	-0.04899044
144	0xa8070a59	-7.496249e-15
145	0xbd557ab8	-0.052118987
146	0x3496c89d	2.8085643e-07
147	0x3d8a5abb	0.06755587
148	0x309bf26a	1.1346633e-09
149	0xb46bb6bc	-2.1952559e-07
150	0xbdca26f6	-0.098707125
151	0xb398fec2	-7.124392e-08
152	0xbb249b56	-0.0025117001
153	0x3dcef8dd	0.10106061
154	0xbd51b560	-0.051198363
155	0x3c75b71b	0.014997269
156	0xbd8e8c34	-0.069603354
157	0xaee2ff96	-1.0322691e-10
158	0xb725b89a	-9.877747e-06
159	0x33f5ec87	1.14517256e-07
160	0x35cac58a	1.5107664e-06
161	0x361a05be	2.295113e-06
162	0x3dba4f5e	0.09097169
163	0x3d6f6c3a	0.058452822
164	0xb14a5cbf	-2.9447589e-09
165	0x3d2447f1	0.04010767
166	0xb9519a30	-0.00019989233
167	0xbc51c017	-0.012802145
168	0x3645c487	2.9469682e-06
169	0xb2013529	-7.5208755e-09
170	0xbbffc8f9	-0.00780594
171	0xbbb8eb6c	-0.005643299
172	0xbccbcf62	-0.024879161
173	0xbc7f3ea6	-0.015578901
174	0x3dc5cde9	0.09658415
175	0xbc98f83d	-0.018673057
176	0xb33ae71a	-4.3516685e-08
177	0xae6b4bc8	-5.350012e-11
178	0x2ac9b4eb	3.583031e-13
179	0x3a3f585c	0.00072992384
180	0xbc100086	-0.008789187
181	0xbb206db4	-0.002447945
182	0x3d0cad5e	0.034345023
183	0xbd6ac7fb	-0.057319622
184	0x3556f300	8.0074824e-07
185	0xbcf35eae	-0.029708233
186	0x345ff398	2.0857112e-07
187	0xbceeaada	-0.029134203
188	0x3ca3e0a4	0.020004578
189	0x3bd44778	0.0064782463
190	0x3c3da26c	0.011574369
191	0xbba4247c	-0.005009232
192	0xb40133e8	-1.2032945e-07
193	0x353204fd	6.6317426e-07
194	0x331c48a8	3.638766e-08
195	0xbd5373a8	-0.05162397
196	0x3d658030	0.056030452
197	0xb3cd4c55	-9.559941e-08
198	0xb7b15bf1	-2.1142858e-05
199	0xbcb181bd	-0.02166831
200	0x3e0ddfbd	0.1385488
201	0x3d27a5d9	0.04092965
202	0xbb1265c8	-0.0022338498
203	0x3b7875f4	0.0037912102
204	0xbcefba58	-0.02926366
205	0x3a24118b	0.00062587176
206	0xa7478394	-2.7688126e-15
207	0xbc6497d6	-0.013952216
208	0x3d08f6a2	0.033438332
209	0xb0161ab5	-5.4607635e-10
210	0x3de017dc	0.10942051
211	0x3d148f83	0.036269676
212	0x37eb5882	2.8055398e-05
213	0x35da2891	1.6254072e-06
214	0xb8fb105a	-0.000119716584
215	0xbce83271	-0.028344365
216	0x3d214203	0.039369594
217	0x377985aa	1.4872678e-05
218	0x3c2650e3	0.010151121
219	0xadd67e0c	-2.438496e-11
220	0xbcc9e547	-0.02464546
221	0x38e2c866	0.00010813847
222	0xb482916a	-2.432019e-07
223	0x3dae52fd	0.085119225
224	0x3d585f69	0.052825365
225	0x366c7546	3.5235003e-06
226	0xbca0e813	-0.019641912
227	0xbd3b0be2	-0.04566563
228	0xbac9f238	-0.001540727
229	0x3a5f0295	0.00085071597
230	0xbdbbbc79	-0.09166808
231	0xb7bf8252	-2.282966e-05
232	0xb75e1952	-1.32381265e-05
233	0xb3c8f31e	-9.3574485e-08
234	0x3b7d7d7c	0.003867953
235	0xbcfbb7d7	-0.03072731
236	0x37c6fce2	2.3721197e-05
237	0xbd6012b1	-0.054705326
238	0xbc955b7c	-0.0182321
239	0xbc850062	-0.016235534
240	0xb50c668a	-5.230328e-07
241	0xbcd0def0	-0.02549693
242	0xb84eb674	-4.928415e-05
243	0xbc3cdbfa	-0.011527056
244	0x3ddf1ebe	0.108945355
245	0xa9b9b9ab	-8.2478586e-14
246	0xbc9d7f40	-0.019225717
247	0x3e467361	0.19379951
248	0xb6bda650	-5.6520003e-06
249	0xbd3ee548	-0.04660538
250	0xbd4985b8	-0.04919979
251	0xbe0051ed	-0.12531252
252	0x382b8cf4	4.090085e-05
253	0x3e34d393	0.17658834
254	0x3990f48f	0.0002764803
255	0x361247be	2.1797455e-06

model.13.bias f4 [64]
0	0x3d873131	0.066011794
1	0x3d84e6fc	0.06489369
2	0x3d68177c	0.05666302
3	0x3e0d671a	0.13808861
4	0x3e234679	0.15944852
5	0x3da16f7a	0.078825906
6	0x3d8662ae	0.065617904
7	0x3da2d775	0.079512514
8	0x3d9eb31e	0.07749008
9	0xbb56a028	-0.003274927
10	0xbd08002f	-0.0332033
11	0x3e1923b1	0.14955021
12	0x3ce34e3f	0.027747272
13	0x3e00cf46	0.12579069
14	0x3d6ea1ef	0.0582599
15	0x3dc41efe	0.09576224
16	0x3de8d32e	0.11368404
17	0x3ddf6730	0.10908353
18	0x3e20d9fd	0.15708156
19	0x3d82503f	0.06362962
20	0x3de23021	0.11044336
21	0x3d6f599e	0.058435075
22	0x3e394b1d	0.1809506
23	0x3ccd1afe	0.025037285
24	0x3d3d4e7f	0.046217438
25	0x3d51333e	0.05107426
26	0x3e14cc21	0.14530994
27	0x3e4070fb	0.18793099
28	0x3e1d6372	0.15369967
29	0x3d77aec0	0.06046939
30	0x3ce2ceb6	0.027686458
31	0x3dc62ba0	0.096762896
32	0xbc0423ff	-0.008065223
33	0x3d87e447	0.06635337
34	0x3c88f75a	0.016719509
35	0x3e30bc53	0.1725934
36	0x3db64cfd	0.08901403
37	0x3d70df77	0.058806863
38	0x3e4e96de	0.20174739
39	0xbd052153	-0.032502484
40	0x3d942028	0.07232696
41	0x3e0e76c2	0.1391249
42	0x3dc898a2	0.097947374
43	0x3d9064a2	0.07050444
44	0x3e327e3c	0.17430967
45	0x3c679429	0.014134445
46	0x3e38aa3f	0.18033694
47	0x3dc978ec	0.09837517
48	0x3def666b	0.116894566
49	0x3d3c5a99	0.04598484
50	0x3df83e4f	0.121212594
51	0x3bfbda2c	0.00768592
52	0x3d6ff373	0.05858178
53	0x3dc4ce62	0.09609677
54	0x3de60cd8	0.112329185
55	0x3e20ba7e	0.15696141
56	0xbce50188	-0.027954832
57	0x3dbf912e	0.09353863
58	0x3d2519de	0.040307872
59	0x3dbc09f1	0.09181584
60	0x3d1ea447	0.038730886
61	0x3d25152c	0.040303394
62	0x3db12eba	0.086514905
63	0x3e19a204	0.1500321

model.16.weight f4 [10, 64]
0	0xbdb95aa0	-0.090504885
1	0xbdc08030	-0.0939945
2	0x3e58726d	0.211374
3	0xbcc507de	-0.024051603
4	0xbe1d5678	-0.15365016
5	0xbdab2444	-0.083565265
6	0xbdbbfd4f	-0.09179174
7	0xbd9308a1	-0.0717938
8	0x3e0ccbb8	0.13749588
9	0x3e134914	0.14383346
10	0xbde9520c	-0.11392602
11	0xbd559156	-0.052140556
12	0xbd86c533	-0.065805815
13	0x3e4f608d	0.20251675
14	0xbd27a029	-0.040924225
15	0xbe33dda9	-0.17565025
16	0xbda95b48	-0.08269364
17	0xbd3e4944	-0.04645659
18	0x3e9a8d37	0.30185863
19	0xbd67e21a	-0.05661211
20	0xbd98b8b3	-0.074571036
21	0x3e09ae7c	0.13445467
22	0x3e3cc137	0.1843308
23	0x3e0cc502	0.13747028
24	0x3e873b5a	0.2641247
25	0xbd852cf6	-0.06502716
26	0x3e2be83f	0.16787814
27	0xbdacd512	-0.084390774
28	0xbdd8c8bb	-0.10585161
29	0x3e804a51	0.250567
30	0x3cd2d570	0.02573654
31	0x3e0c3040	0.13690281
32	0xbe114ff8	-0.14190662
33	0xbe1f1d8d	-0.15538616
34	0xbdd1bc1b	-0.102409564
35	0xbdc9fbdb	-0.09862491
36	0x3dfe9b80	0.12432003
37	0x3e3158bf	0.1731901
38	0x3e63dd6f	0.22252439
39	0xbd5c7e5a	-0.053831436
40	0xbce81c27	-0.028333737
41	0xbdf85a3d	-0.121265866
42	0xbdef8d43	-0.116968654
43	0xbe213d5f	-0.15746067
44	0xbca2cbf0	-0.019872636
45	0xbdc19018	-0.09451312
46	0xbe193263	-0.14960627
47	0xbd9727f0	-0.07380664
48	0x3e60352c	0.21895283
49	0x3beb22b8	0.0071757697
50	0x3de8f402	0.11374666
51	0xbd361f4a	-0.044463433
52	0xbdb1be9a	-0.086789325
53	0xbdb8a146	-0.090151355
54	0xbda00d3c	-0.07815024
55	0x3e6bfdb6	0.23046002
56	0xbe119c5a	-0.142198
57	0x3c7b682f	0.0153446635
58	0xbdff5a35	-0.124683775
59	0xbd92b0b6	-0.07162611
60	0xbde5f5b4	-0.11228505
61	0xbd6f41d2	-0.05841238
62	0xbe046132	-0.12927702
63	0x3c2573b8	0.01009839
64	0xbd3a6aca	-0.045512
65	0x3e42b02d	0.19012518
66	0x3e40e63e	0.1883783
67	0xbe26e1ff	-0.16297148
68	0xbe19a0d9	-0.15002765
69	0xbdbd7d55	-0.09252421
70	0xbd92bc7e	-0.07164858
71	0xbe207a11	-0.15671565
72	0x3e43b64b	0.19112508
73	0xbd85a55c	-0.065256804
74	0xbd3fc03e	-0.046814196
75	0xbdf911fc	-0.12161633
76	0x3dc2deeb	0.095151745
77	0xbe13638a	-0.1439344
78	0xbdcfc18d	-0.10144339
79	0xbd7f1b53	-0.062281918
80	0xbe047d5e	-0.12938449
81	0xbd753b74	-0.059871152
82	0xbd53ad38	-0.051678866
83	0x3e4331cc	0.19061965
84	0xbda581e6	-0.08081417
85	0x3e758e6e	0.23980114
86	0xbe45f8b2	-0.19333151
87	0x3e406386	0.18787965
88	0x3dc6f4f1	0.097146876
89	0x3e154f75	0.14581092
90	0xbe190500	-0.14943314
91	0xbdcda03b	-0.10040327
92	0x3dde4bf9	0.108543344
93	0xbddf0c38	-0.108910024
94	0xbe34b4c3	-0.1764708
95	0xbdbf67c0	-0.093459606
96	0x3e354410	0.17701745
97	0xbcfbb9b1	-0.030728193
98	0x3d56f324	0.05247797
99	0xbddf0e12	-0.108913556
100	0xbdacda27	-0.08440047
101	0xbde0c546	-0.10975127
102	0xbdfc0275	-0.12305156
103	0x3d6179d3	0.05504782
104	0x3e7e070d	0.24807377
105	0xbe0a9e52	-0.13536957
106	0x3e2aad3b	0.16667645
107	0xbdd7626e	-0.10516821
108	0xbdcc418b	-0.09973439
109	0x3e521d49	0.20518984
110	0x3e304f03	0.1721764
111	0x3e6fe568	0.23427355
112	0xbe04bd2a	-0.12962785
113	0xbe161df1	-0.14659859
114	0x3d897952	0.06712593
115	0xbe07fbfd	-0.1327972
116	0x3dcb3e00	0.09923935
117	0xbdda7698	-0.10667151
118	0x3e809329	0.25112274
119	0xbe124b7a	-0.14286605
120	0xbdb26c4c	-0.08712062
121	0xbdfa89de	-0.12233327
122	0x3e49e3bd	0.19715782
123	0xbcf9e571	-0.030504914
124	0xbe205ee3	-0.15661196
125	0xbe0c8ad9	-0.13724841
126	0x3e10d368	0.14143145
127	0xbd4d0f44	-0.050063387
128	0xbdb93d5d	-0.09044907
129	0xbd34bd0a	-0.044125594
130	0xbdfb9d3f	-0.12285852
131	0xbdb01268	-0.08597261
132	0x3e9337d2	0.28753525
133	0xbdc36f2f	-0.09542691
134	0x3b78f733	0.003798914
135	0x3c94d19f	0.018166361
136	0xbe24005e	-0.16015765
137	0xbd308615	-0.04309662
138	0x3dde561b	0.10856267
139	0xbd957975	-0.07298557
140	0x3e648680	0.22316933
141	0xbdbde866	-0.09272842
142	0xbca770de	-0.020439561
143	0x3e26880d	0.16262837
144	0x3e2d204a	0.16906849
145	0x3e424d54	0.18974811
146	0x3e72a2ff	0.2369499
147	0xbc9c051b	-0.019045403
148	0x3d5d1873	0.053978395
149	0xbde4a620	-0.11164498
150	0xbe14231e	-0.14466521
151	0xbda8ae96	-0.082364246
152	0xbd0f19e4	-0.0349368
153	0xbbde0f2a	-0.00677671
154	0xbda8c595	-0.08240811
155	0x3e8dd82f	0.27703997
156	0x3e62d6ee	0.22152302
157	0xbda0b6a0	-0.07847333
158	0xbcb75542	-0.022379521
159	0xbda528fa	-0.08064456
160	0xbcdf1400	-0.027231216
161	0xbdbc05d7	-0.09180801
162	0xbe142d9c	-0.14470524
163	0x3ce1c7df	0.027561126
164	0x3dd4845d	0.10376809
165	0xbd84aab3	-0.06477871
166	0x3e0d561b	0.13802378
167	0xbd147da2	-0.036252625
168	0xbdbf2e1d	-0.09334967
169	0xbdbb8e17	-0.09157961
170	0xbdc3a25f	-0.09552454
171	0xbc085ce7	-0.008322931
172	0x3d5dd86c	0.054161474
173	0xbcfd41a5	-0.03091509
174	0x3e9cd681	0.30632403
175	0xbdacd3ee	-0.0843886
176	0xbd7a0814	-0.06104286
177	0xbddda17f	-0.108218186
178	0x3e389dd0	0.1802895
179	0xbdc28451	-0.094978936
180	0x3e3a8595	0.1821502
181	0x3caf334e	0.021386769
182	0xbe3f56e8	-0.18685496
183	0x3d96c8e4	0.073625356
184	0xbb3ccb0b	-0.0028807546
185	0xbd82cc12	-0.063865796
186	0xbdcabee3	-0.0989969
187	0x3e77f5bb	0.24214832
188	0xbe16fd3b	-0.14745037
189	0xbe19ff40	-0.15038776
190	0xbd925651	-0.0714537
191	0x3e8dfe7b	0.27733216
192	0xbcb5e774	-0.022205092
193	0xbdc4f0e7	-0.09616261
194	0xbd1d2936	-0.03836938
195	0xbc39b288	-0.011334069
196	0x3e2800d6	0.16406569
197	0xbddfe30e	-0.10931979
198	0x3e673d2f	0.22581933
199	0xbdcff859	-0.101547904
200	0xbdce16f5	-0.100629725
201	0xbd78ecd3	-0.06077273
202	0xbdc672a3	-0.09689834
203	0x3e86b77d	0.26311865
204	0x3c8f63de	0.017503675
205	0xbdaf351f	-0.08555054
206	0x3b3607a6	0.0027775555
207	0x3e2c295d	0.16812654
208	0x3d05cd63	0.032666575
209	0xbd191c9a	-0.037380792
210	0xbe1dabe0	-0.15397596
211	0x3e40ea70	0.18839431
212	0x3e0b5440	0.13606358
213	0xbdb5868f	-0.08863556
214	0x3b96a8c7	0.0045977565
215	0xbd3826bd	-0.04495882
216	0xbd9ba270	-0.07599342
217	0x3daef6bf	0.08543157
218	0xbb7a65ba	-0.0038207606
219	0x3e36ea71	0.1786287
220	0x3d7b858c	0.061406657
221	0xbdda27ea	-0.10652144
222	0xbe1a756d	-0.15083857
223	0xbddce5d9	-0.107860275
224	0xbe026d5c	-0.1273703
225	0xbe09394b	-0.13400762
226	0xbe0dc783	-0.13845639
227	0x3e39a740	0.18130207
228	0xbd8f2857	-0.06990116
229	0x3e5adba0	0.21372843
230	0x3dfa8b38	0.12233585
231	0xbd89fcdd	-0.06737683
232	0xbd2753ba	-0.040851332
233	0x3e128d60	0.14311743
234	0xbd3a813c	-0.045533404
235	0x3e24b2a5	0.16083772
236	0x3e5d6a85	0.21622665
237	0xbdf0cd9a	-0.117579654
238	0xbdd85f56	-0.10565059
239	0xbd7b9997	-0.06142577
240	0x3e0a6b63	0.13517527
241	0xbdfd22a3	-0.12360122
242	0x3d32dac2	0.043665655
243	0x3cdc2350	0.026872307
244	0xbdc8de74	-0.098080546
245	0x3e83356b	0.25626692
246	0xbd5c8f8e	-0.053847842
247	0xbdf76524	-0.12079838
248	0xbe0be7e0	-0.13662672
249	0x3e67235b	0.22572081
250	0x3e12857e	0.14308736
251	0x3dada471	0.0847863
252	0xbe17def0	-0.14831138
253	0xbda17398	-0.07883376
254	0x3e5d7e16	0.21630129
255	0xbd0a1908	-0.033715278

model.16.bias f4 [10]
0	0x3d1db732	0.038504787
1	0xbde6ef7d	-0.112761475
2	0x3e4420fb	0.19153206
3	0xbc92bd2e	-0.017912474
4	0xbdab6dd7	-0.0837056
5	0x3d863848	0.065537035
6	0xbe58a27c	-0.21155733
7	0x3d000bf1	0.03126139
8	0x3e00bc1e	0.12571761
9	0xbd36259a	-0.044469453
